examples/eeg2025/weights_challenge_1.pt (torch, 261899 bytes, 26 tensors)

block_1.1.weight f4 [8, 1, 1, 64]
000000 81 46 f3 3d 76 18 ad 3d f6 a3 9b 3c 43 cc a2 bd
       0.11878682 0.08451931 0.018999081 -0.07949116
000010 ba e1 25 3d 31 75 65 3d bb 05 a1 3c 14 de 3a bc
       0.040498473 0.056019966 0.019656053 -0.011405487
000020 65 fc 86 bc 26 8c b7 3d 08 31 0b bc f3 6d 33 3d
       -0.016477773 0.08962278 -0.008495577 0.043806028
000030 52 ce 50 3c bf cf 53 bd 43 fb b4 3d 9e d4 03 3d
       0.012744503 -0.051711794 0.08836987 0.03218519
000040 b6 d6 69 bd 56 d9 10 bd 4d c7 a9 bd a5 02 a3 3d
       -0.05708953 -0.035363518 -0.08289967 0.07959489
000050 d5 2e 8f bd c2 b7 9e bd cd e1 98 3c 79 0d e4 3d
       -0.069913544 -0.07749893 0.018662358 0.11135382
000060 cb ad 5b 3d c3 c6 87 bc c7 ce 1e 3d 7e db d6 3c
       0.05363254 -0.01657427 0.038771417 0.026227709
000070 cd 2c ae bd ba 69 3b 3d 93 94 b6 3d 64 c8 9c 3d
       -0.08504639 0.045755126 0.08915057 0.07655409
000080 15 34 d4 3c 35 5c f5 3c 74 9e 20 3d d8 9a fc bc
       0.02590374 0.029951194 0.039213613 -0.030835554
000090 ee 3b f0 3d 86 0d 00 bd 9c be 8d bd 13 c8 80 3d
       0.11730181 -0.031262897 -0.069211215 0.06288161
0000a0 49 e8 81 bd 7f fe 58 3d da 56 b7 3d f9 23 87 3d
       -0.06343133 0.05297708 0.089521125 0.06598658
0000b0 c5 27 13 bb f6 b1 c0 3c 1b 3a 88 bd c9 b0 e6 3c
       -0.0022454124 0.023522358 -0.06651708 0.02816047
0000c0 ee 42 d0 bc a3 29 12 3d be c1 b7 3d e0 04 86 3c
       -0.02542254 0.03568424 0.089725 0.016359746
0000d0 6c 3f ca bd db 90 87 bd 87 e1 9b bd 28 13 05 bd
       -0.09875378 -0.06619426 -0.07611375 -0.032488972
0000e0 db 6e f1 bc 5c da b7 3c ba 29 ae bd ca 97 7a 3b
       -0.029471805 0.022442989 -0.085040525 0.0038237446
0000f0 b1 63 a9 bd ee 7c 26 bd b6 d9 e7 3d c4 06 a4 3c
       -0.08270968 -0.040646486 0.11320822 0.020022757
000100 69 56 c4 ba 04 cc 8c bc 92 7b d1 bd 12 df ed bd
       -0.0014979366 -0.017187126 -0.10228647 -0.11614813
000110 d1 00 e2 3d c7 e5 ec 3d ff ac e0 3d c7 86 01 bc
       0.11035312 0.11567264 0.109704964 -0.007905669
000120 f2 45 25 bb 3d 66 80 3d 5a 3b 68 bd d4 a0 b9 3d
       -0.0025218693 0.062695004 -0.056697227 0.09063879
000130 37 66 b5 bc 72 51 d4 3d 94 3b ce 3d 74 dc aa bd
       -0.022143466 0.10367097 0.100699574 -0.08342829
000140 3d fe 98 bc f1 0f ec bc 3e a1 ff 3c 24 45 d5 bd
       -0.018675918 -0.028816195 0.031204816 -0.10413578
000150 11 65 df 3d 31 d6 20 3d d2 6e 7c bd 6f e4 42 3d
       0.10907949 0.03926677 -0.061629124 0.047581133
000160 82 bf b0 3d ce 77 81 3d b2 10 c0 3c f3 4b d9 bc
       0.08630277 0.06321679 0.023445461 -0.026525473
000170 14 80 b6 bd d0 70 4f bd be 2e a1 bd b0 e4 b9 3c
       -0.08911148 -0.050644696 -0.078702435 0.022692055
000180 bc bb e0 bb 41 70 d6 bc 5d 7a af bc ca 92 b1 3c
       -0.006858317 -0.026176574 -0.021420652 0.02167644
000190 31 1e 34 bd fb 83 cd bd ae 6e f4 3c e8 ee 6e 3d
       -0.043974105 -0.10034939 0.029837932 0.058333308
0001a0 b6 1c 43 bd 9a 29 45 bd 06 ff f8 3d 1c ac ea bc
       -0.047634803 -0.048135377 0.12158017 -0.028646521
0001b0 a3 4d f1 b9 48 bd 7c 3c da 6e c5 bd fd b1 c5 3d
       -0.00046024946 0.015425988 -0.09640284 0.09653089
0001c0 24 a9 24 3b a7 27 ce bd b2 8b 58 bd 66 42 8d bb
       0.002512523 -0.10066157 -0.0528676 -0.004310894
0001d0 9e a3 04 3b 67 2a ae 3c dc c6 fb 3d 83 63 3f 3d
       0.0020239125 0.021260453 0.12293789 0.04672576
0001e0 1b ce 91 bd e6 73 77 3d 91 a0 8d 3d 36 d7 c2 bd
       -0.071193896 0.060413264 0.06915391 -0.095137045
0001f0 6f 75 22 bd 60 07 03 bb f5 6b c9 3d a4 74 18 3d
       -0.039662775 -0.001999341 0.09835044 0.037220612
000200 92 05 5f bd f9 93 30 3d e4 20 99 bd 59 83 c7 3d
       -0.05444867 0.043109868 -0.074769765 0.097418495
000210 4e a4 2c bd f3 28 d2 bd 1e ba d2 bc 24 2a 0e 3d
       -0.04214888 -0.10261717 -0.025723513 0.034708157
000220 5c 7b 42 bc 16 fd aa 3d f1 52 da bd 2e 33 10 3d
       -0.0118702315 0.083490536 -0.10660351 0.03520506
000230 b4 41 5d 3d f4 91 f2 3d 22 c1 9a 3d f9 a8 4a 3d
       0.054017738 0.118442446 0.075563684 0.04947755
000240 4e ae 17 3d 7b b8 db 3d e9 76 5e 3d 42 c4 19 bd
       0.037031464 0.10728546 0.05431262 -0.03754068
000250 e4 a9 94 bd 66 36 87 bd d7 4c c7 39 75 4d d3 bd
       -0.072589666 -0.066021726 0.00038013488 -0.10317508
000260 3c 82 9d bd d6 19 f0 3d 6c 99 4f 3d 9e 78 a9 3d
       -0.07690856 0.11723678 0.050683424 0.08274959
000270 51 83 15 bd 5c 70 51 bd ef c7 e6 bc fc 1b f2 3d
       -0.036502186 -0.051132545 -0.028171508 0.11821744
000280 b5 f5 90 3b 5b ff ad bc 41 82 c5 3c 5c f0 33 bd
       0.004423822 -0.021239927 0.024109961 -0.043930396
000290 5b 2a fb 3b 37 3c b8 bd cf b6 c4 3d 6d 7a de bd
       0.0076649613 -0.0899586 0.096051805 -0.108631946
0002a0 55 45 47 3b 20 aa b4 bd 78 c4 cd bc e4 00 d4 3d
       0.0030406315 -0.08821511 -0.025118098 0.103517324
0002b0 f8 d8 87 bd ea e1 08 bd 55 9c b8 bb c4 f2 40 3d
       -0.066331804 -0.033418573 -0.0056338706 0.04710652
0002c0 e6 9c 92 bd 26 63 18 3d bf 57 08 3c ad 2b 95 3d
       -0.07158832 0.03720393 0.008321702 0.07283721
0002d0 40 ff 03 bd 74 40 e9 3c 39 ab 80 bc 72 d9 a7 bd
       -0.032225847 0.028473116 -0.015706645 -0.08195771
0002e0 ed ae 6a 3d e6 f4 54 3d e8 40 da 3d a2 9c ec bc
       0.05729573 0.051991366 0.10656911 -0.028883282
0002f0 17 99 b9 3d 84 f9 85 bd e7 66 cb 3d fa 10 59 bd
       0.09062403 -0.06541732 0.099317364 -0.052994706
000300 d1 80 1d bd 40 a2 02 3d 13 75 5a 3d 42 97 dc 3d
       -0.038452927 0.031893015 0.053334307 0.10771038
000310 5e 6e 95 bd 17 bb f8 bd f4 77 f8 bc c8 c8 98 bd
       -0.072964415 -0.121450596 -0.030330636 -0.07460171
000320 b3 f5 aa 3d bd 84 89 bd 3a a6 0b 3d e4 9d ec 3c
       0.08347645 -0.06714771 0.034094073 0.028883882
000330 28 51 ae 3c 04 a3 8c 3c d2 7f 2a 3d b7 39 51 3d
       0.021278933 0.017167576 0.041625805 0.05108043
000340 7d 2d a6 3d 92 4a 18 3d 6b 87 f1 ba 02 0b 67 3d
       0.08114145 0.03718049 -0.0018427199 0.056406982
000350 ef 1b 59 3d df 7f a8 bd ef 1a c0 3d 47 2e 83 3b
       0.053005155 -0.082275145 0.09380137 0.0040033194
000360 97 11 f1 bc 84 1c e3 3d d7 5d 97 3c 94 bc 9d bd
       -0.029427333 0.11089423 0.018477364 -0.07701984
000370 46 62 af 3d 89 b6 a6 3c 8f 1d 2b 3d a4 6a 6a 3d
       0.08563666 0.020350711 0.041776236 0.057230607
000380 d2 38 5b bd c0 69 bd bd c9 da 99 bd f4 a5 94 bd
       -0.053520985 -0.09248686 -0.07512433 -0.072582155
000390 a9 0a 0f 3d 37 0c 3f bd e7 e3 e4 3c 7a 16 17 bd
       0.034922276 -0.04664251 0.027940704 -0.03688667
0003a0 81 a0 a8 bd 6b 2a d7 3d 81 a1 16 bd 2d e2 44 3d
       -0.08233739 0.105061375 -0.036775116 0.04806726
0003b0 e4 f5 f3 bc ee a7 1b bd 58 b4 24 bd 75 be 63 3d
       -0.029780336 -0.038001947 -0.04021105 0.055601556
0003c0 3b b9 01 3d 9b cd 44 bd 63 71 bd bd 70 79 e7 bd
       0.03167079 -0.048047643 -0.092501424 -0.11302459
0003d0 e9 f1 b0 3d 41 01 a0 bd 29 be 8a bd a5 95 6f bc
       0.08639891 -0.07812739 -0.067745514 -0.01462308
0003e0 d0 92 82 3c f4 66 16 bc a9 83 ee bb 9a 5a ad 3d
       0.015939146 -0.009179819 -0.0072788787 0.084645465
0003f0 f4 b6 f4 3d b1 a0 ba 3d a6 3d 34 bb 2e 07 9f 3d
       0.11948958 0.09112681 -0.0027502566 0.07765041

block_1.2.weight f4 [8]
000000 34 21 7e 3f a5 e8 7b 3f c5 1a 80 3f 89 04 7c 3f
       0.99269414 0.9840186 1.000817 0.9844442
000010 9e b1 7b 3f 17 4b 7c 3f 68 07 80 3f 45 c2 7e 3f
       0.983179 0.9855208 1.000226 0.9951518

block_1.2.bias f4 [8]
000000 37 17 97 bc 9f d0 96 3c 47 ae a3 3c 62 90 97 bc
       -0.018443687 0.018410025 0.019980563 -0.018501464
000010 0b d7 a0 3c eb 14 96 3c 85 43 1e bc 6b ab a1 3c
       0.01963379 0.018320521 -0.009659653 0.019735059

block_1.2.running_mean f4 [8]
000000 bf 16 0e b5 c3 6f c0 b3 f7 3d 63 b3 00 a3 0e b4
       -5.293222e-07 -8.961026e-08 -5.2908913e-08 -1.328408e-07
000010 00 f7 15 32 37 85 6b 31 48 c7 c3 33 65 be 6c 34
       8.729103e-09 3.4272725e-09 9.116644e-08 2.2048478e-07

block_1.2.running_var f4 [8]
000000 30 31 72 3c 7b 2d 72 3c 4c 2d 72 3c be 2e 72 3c
       0.014782235 0.014781351 0.014781307 0.014781652
000010 9c 2f 72 3c 11 2c 72 3c 94 2c 72 3c d6 2e 72 3c
       0.014781859 0.014781014 0.014781136 0.014781674

block_2.0.weight f4 [32, 8, 1, 64]
000000 e5 96 a8 3b 12 2f fc bc 3f 1d 6d bc 6e 04 39 3d
       0.005144941 -0.030784164 -0.014472305 0.04517024
000010 d7 40 9f bb dc df 32 3d 99 e2 2a bb d3 64 02 3d
       -0.0048600244 0.04367052 -0.0026075004 0.031834435
000020 77 8c e8 39 27 73 32 3d 72 aa 23 bd a3 9a 03 bd
       0.00044355143 0.04356685 -0.03995747 -0.032129895
000030 2e e1 fb 3c dd 28 8e bc 00 2c ab 3c 76 a5 4c ba
       0.030747022 -0.01735347 0.020895004 -0.0007806638
000040 82 3d 7c 3c 49 a1 ab bb 92 e3 88 3c 20 28 a8 bc
       0.015395524 -0.0052377325 0.016710076 -0.020526946
000050 e0 79 26 bc f2 01 1e 3d 0e c3 bf b8 8c 83 34 bd
       -0.010160893 0.038576074 -9.1439215e-05 -0.044070765
000060 b7 04 21 3d 6c 50 5a ba 44 3a 13 bd ad c4 27 3c
       0.039311137 -0.0008328024 -0.03594424 0.010239762
000070 09 12 1a 3d c5 b2 1b bd 94 de 21 3d 57 d5 87 3c
       0.037614856 -0.038012285 0.039518908 0.01658122
000080 2c 4e dd bc 47 7f 14 3d fd db eb 3b 06 32 e8 3b
       -0.027014814 0.036254194 0.0071978555 0.0070860414
000090 9a bd 5a bc d3 3a 35 3d a1 e9 9c bc 04 ca 28 3d
       -0.013350869 0.044245552 -0.019154372 0.041208282
0000a0 92 98 0d 3d 1c cf 07 bb ed 7b 0a 3c 40 86 48 3c
       0.03456933 -0.0020722812 0.008452398 0.012239039
0000b0 80 d1 3d 3c 0c 52 db bc c4 32 a4 3c d0 0d d3 bc
       0.011585593 -0.026772521 0.020043738 -0.025763422
0000c0 5d 6c 0d bd a4 67 23 3d 3e 10 b6 3b 48 e5 57 bc
       -0.03452717 0.03989376 0.0055561354 -0.0131772235
0000d0 34 96 b5 3a 36 f9 df bc d6 54 1a 3d 4f bb 0a bc
       0.0013853968 -0.027340513 0.037678562 -0.008467509
0000e0 af 26 05 bd 4c 02 62 3b 47 f7 31 3d fe d9 bd bb
       -0.032507595 0.0034486232 0.043448713 -0.005793809
0000f0 36 28 f0 3c ff 28 19 3d 1f 5c ed 3c 2a 97 14 3b
       0.02931605 0.037392613 0.02897459 0.0022673109
000100 cc d0 42 bd 26 cb 3b bd cc bc cd bc 03 a2 25 bd
       -0.047562405 -0.045848034 -0.02511444 -0.04043771
000110 6e 74 c8 3b 5d 40 ab 3b 30 6d 3d 3b 20 41 07 3d
       0.006117395 0.0052261786 0.0028904192 0.033021092
000120 dd 59 f5 3a 22 a8 82 bc 8d 87 8d bc ba 32 c6 3c
       0.0018718798 -0.015949313 -0.01727655 0.02419411
000130 2c 20 f5 bc 5f 12 a4 bc d9 04 23 bd ae 75 3a 3c
       -0.029922567 -0.020028291 -0.039799545 0.011380596
000140 1f ba d6 3c ac e1 f2 3c 4a a4 84 bc 0e 5a 83 bb
       0.026211796 0.029648624 -0.01619162 -0.004008538
000150 c7 f0 17 bd 28 8e a5 bc 93 73 e8 bb e9 30 70 bc
       -0.037094858 -0.020209387 -0.0070938556 -0.014660099
000160 af c3 10 bd 8c 4e ba 3c 6c a1 27 bd a9 87 f1 3c
       -0.03534287 0.022742532 -0.04092543 0.029483633
000170 5f 3c 47 3c 63 66 86 3b f2 67 63 bc c8 54 9d bc
       0.01216039 0.004101561 -0.013879763 -0.019205466
000180 d1 bb 0a 3d 17 c1 94 3b f2 77 96 3c 7c 7b 97 3c
       0.033870522 0.0045396197 0.018367741 0.0184915
000190 e2 3f 9e 3c 5b 47 00 3c 3d 9f f7 ba c5 cd 82 3a
       0.019317571 0.0078295125 -0.0018892061 0.0009979537
0001a0 63 6b 84 bc 77 b2 40 bc 30 7c f2 3c 16 c6 bd bb
       -0.016164487 -0.011761299 0.029600233 -0.005791436
0001b0 d1 2f b0 bc ed 3d 97 3c e5 77 a0 3c d3 96 01 3d
       -0.021507176 0.018462146 0.01958842 0.031637978
0001c0 8d 12 30 bc 54 82 27 bc cb a7 ea 3c eb 3f 44 bd
       -0.01074661 -0.010223944 0.028644463 -0.04791252
0001d0 b6 f6 d5 bc 23 30 84 bc a1 70 1f 3b 53 8e 03 3d
       -0.026118618 -0.016136235 0.0024328607 0.032118153
0001e0 45 df 0e bd 10 98 f5 bc 96 ab 16 bd 88 34 0f 3c
       -0.034880895 -0.029979736 -0.03678473 0.008740552
0001f0 ff 53 81 bc 21 b1 00 bd 04 f0 47 3c 9a dc 89 3c
       -0.015787123 -0.031418923 0.01220322 0.016828824
000200 6b c0 41 bd 90 4d 20 bd fd c7 e0 3b cf bb 00 bd
       -0.047302645 -0.03913647 0.006859778 -0.03142911
000210 67 5e db 3c 41 d5 23 bd c0 3e cf 3c 1f f9 24 3d
       0.026778413 -0.039998297 0.025298476 0.040276643
000220 2b 9e fd bc 27 43 1f bd f6 cd c5 ba b3 cc 5f 3c
       -0.03095921 -0.0388824 -0.0015091288 0.013659644
000230 5a f0 07 ba 37 30 1e 3c e2 03 c5 bb 9f 11 c1 bc
       -0.00051856565 0.00965505 -0.0060124258 -0.023567973
000240 df e5 a9 3c 09 7f cb bc 23 80 d0 bb 3a 18 2d bd
       0.020739494 -0.024840849 -0.0063629313 -0.042259432
000250 01 6b 05 bd 0a 9f 12 3d 1a 8d e7 3c 63 48 3b bc
       -0.03257275 0.035796203 0.028265525 -0.011430833
000260 da e5 c6 bb 57 68 26 bd ba 00 70 bb 3f 4d 51 3c
       -0.006069881 -0.04062685 -0.0036621527 0.012774765
000270 56 5e 2a bd 39 51 81 3c 49 a1 21 bd 0f be be 3c
       -0.041593872 0.0157858 -0.039460454 0.023283986
000280 c0 fe 36 bd ef 92 01 3d d8 71 01 3d 16 52 4c bd
       -0.044676542 0.031634267 0.03160271 -0.04988297
000290 15 21 47 bc 19 e2 85 bc 9e c0 00 3b 7c 35 83 bc
       -0.012153883 -0.016343163 0.0019646059 -0.016016714
0002a0 c7 89 4b 3c 92 e9 fa bb 9e b5 9a bb a5 b2 b0 bb
       0.012422985 -0.0076572383 -0.0047213575 -0.00539239
0002b0 90 1a b5 bc 2c 3a b2 3c 27 33 83 bc 4d bf 7a 3c
       -0.022107393 0.021756254 -0.016015602 0.015304399
0002c0 bd dd c1 bc 67 ca 15 bd f8 b5 fe 3c 7e db 34 bd
       -0.023665303 -0.03656998 0.031092629 -0.044154637
0002d0 1f 7c 10 bc ea 50 23 bd a0 34 0d 3d 6e a5 1d 3b
       -0.008818655 -0.039872088 0.034474015 0.0024054903
0002e0 14 ad cd 3b e2 47 0c bd 63 a8 ef 3c f1 3a a1 bc
       0.006276736 -0.03424824 0.029255098 -0.019681426
0002f0 87 5e c5 3c ad 67 b2 bb 41 5f 94 3c 28 2d 79 bc
       0.024092926 -0.005444488 0.018111827 -0.01520852
000300 db 65 08 bd a0 b0 d3 3c 6b 5f 25 3d a2 21 26 3d
       -0.033300262 0.025841057 0.0403742 0.04055942
000310 e1 6e 53 3d 4b 7f 86 bc c1 30 91 bc 8c 5d 31 3c
       0.051619414 -0.01641812 -0.017723443 0.010825526
000320 44 7c 23 3d e8 e4 f1 bc 46 a2 18 3c 24 79 05 3d
       0.03991343 -0.029528096 0.009316033 0.03258623
000330 c8 81 f3 bc 2a cf f2 bb 4b cd da 3c cd 44 04 3d
       -0.02972497 -0.00740995 0.02670922 0.032292176
000340 81 bc 15 bd 7d c6 39 3d df 35 e4 3a fe 96 a2 bc
       -0.036556724 0.04535531 0.0017411074 -0.01984739
000350 2b 7b 57 bc fb 4a 85 3c 45 d7 4c 3c c4 11 b1 bc
       -0.013151924 0.016271105 0.012502496 -0.021614917
000360 f8 7f 0a 3d e6 0f c8 3c ec d3 9e bc 01 39 b6 bc
       0.033813447 0.024421643 -0.019388162 -0.022243978
000370 23 84 13 bd 58 82 f8 bc 10 34 02 bd 8d 26 8b bc
       -0.036014687 -0.03033559 -0.031787932 -0.016986156
000380 ab eb 11 3d 62 15 da b9 e7 20 30 3d f8 28 0a bc
       0.03562514 -0.00041596132 0.043000128 -0.008432619
000390 bf 27 9a 3c 5d e8 49 bc 08 b5 9e 3c 41 4a 2e 3d
       0.01881778 -0.012323466 0.019373432 0.042551283
0003a0 26 94 29 3d b5 3e 07 3d 0c f1 da 3c b9 a1 5c bc
       0.04140105 0.033018786 0.026726268 -0.013466292
0003b0 b8 27 14 3d 20 28 0d bd 06 1d 5f ba 09 2e 63 bb
       0.03617069 -0.034462094 -0.00085111 -0.003466489
0003c0 49 d5 07 3c d0 51 94 bb 2a 96 5d 3c 27 d4 d2 bc
       0.008290597 -0.0045263544 0.013524571 -0.025735928
0003d0 8d a1 7f 3c a3 c8 42 3d 57 de 3b bc 34 98 be bb
       0.015602482 0.047554623 -0.011466584 -0.005816484
0003e0 36 26 a5 3b 99 10 6b 3c b2 d6 41 bc 82 f2 36 3d
       0.0050399555 0.014347219 -0.0118309725 0.044664867
0003f0 2b c6 b1 bc 3c a6 22 bc a2 88 0b bd eb 4e da 3a
       -0.02170094 -0.009927329 -0.03406585 0.00166556

block_2.1.weight f4 [32]
000000 e8 a8 80 3f eb 47 80 3f 39 22 7e 3f 88 52 80 3f
       1.0051546 1.0021948 0.9927097 1.0025187
000010 06 d8 80 3f 48 cd 7d 3f 72 a3 80 3f 9c 22 7f 3f
       1.0065925 0.9914136 1.004988 0.99662185
000020 e4 44 80 3f 37 48 80 3f 89 42 7f 3f f3 2a 7f 3f
       1.0021024 1.0022038 0.997109 0.9967491
000030 95 80 7e 3f 32 6c 81 3f 20 3b 80 3f 21 14 7e 3f
       0.9941495 1.0111144 1.0018044 0.99249464
000040 d6 48 80 3f 2d bf 7e 3f 57 74 80 3f 2b dc 7d 3f
       1.0022228 0.9951046 1.0035504 0.99164075
000050 04 b6 81 3f 28 b2 7e 3f 0d 3b 7e 3f 04 60 80 3f
       1.0133672 0.99490595 0.99308854 1.0029302
000060 3b 56 7f 3f 4b c4 7f 3f 5b e3 7e 3f a8 33 81 3f
       0.9974095 0.99908894 0.99565667 1.0093889
000070 bd 31 7f 3f 0f 01 7f 3f 37 21 80 3f 32 b4 7c 3f
       0.9968527 0.9961099 1.0010136 0.98712456

block_2.1.bias f4 [32]
000000 33 3d b0 ba 11 1c cb ba b9 05 72 3b d1 75 19 3b
       -0.0013445973 -0.0015496035 0.003692968 0.0023416171
000010 16 8e 00 3a bc 36 38 3b be 29 a4 ba 49 04 aa bb
       0.0004903985 0.0028108796 -0.0012524647 -0.005188499
000020 da 6d bd 3a db 99 1d 3a 15 f2 3b ba 50 e8 36 39
       0.0014452294 0.0006012001 -0.0007169557 0.00017443416
000030 0b 69 39 bb 97 a9 cc 39 68 0e cd 3a b1 b9 37 3b
       -0.002829137 0.00039036266 0.0015644552 0.0028034265
000040 7d 01 2b 3b 0c ac 23 3b 70 80 b6 3b c0 f4 a6 b9
       0.0026093416 0.0024974374 0.00556951 -0.0003184434
000050 2e af 12 3c 45 e4 d9 3b 53 b4 00 3b a5 5a 45 3b
       0.008952899 0.0066495263 0.0019638732 0.0030113843
000060 c3 a4 12 3b 4c 3a 8e 3b 60 5d 10 3b 1d ae 96 bb
       0.0022376038 0.0043404456 0.0022028312 -0.0045983926
000070 b9 d5 ec 3a a0 2d c4 3b 3a d6 08 3b e9 b8 77 ba
       0.0018069065 0.0059868842 0.0020879642 -0.0009449856

block_2.1.running_mean f4 [32]
000000 f7 83 0f bd e2 0e b0 ba d1 95 f0 3c f0 78 87 3c
       -0.03503796 -0.001343217 0.029368313 0.01653716
000010 2f 6f 37 3d 38 ce 1a bc bc 85 95 3c 18 b9 c7 3c
       0.044783767 -0.00944858 0.018252246 0.024380252
000020 b0 f5 20 bb 1d 9a 0f 3c 5b d0 4b bc 24 5d 16 bd
       -0.0024560504 0.008764771 -0.0124398125 -0.03670992
000030 06 09 91 bc 13 30 26 bd 87 6a 44 3c de 45 43 bc
       -0.017704498 -0.04057319 0.011988289 -0.011918513
000040 43 09 d3 3c 87 d7 25 3c 43 7d 1c 3d da 32 cb 3c
       0.025761252 0.0101221865 0.038205396 0.024804521
000050 1c 9d 16 bd 28 a3 61 3c b2 fa 27 bc b5 63 21 3d
       -0.036770925 0.01377181 -0.0102526415 0.03940173
000060 3a 99 f3 bc 5c 5c 08 bc 17 30 b7 3b 8e ca a6 3b
       -0.02973615 -0.008322801 0.0055904496 0.0050900644
000070 eb 2c ec ba 85 ca e3 bc a4 9d ce b7 90 dd 07 3d
       -0.0018018758 -0.02780653 -2.463052e-05 0.033170283

block_2.1.running_var f4 [32]
000000 2e 10 f6 3c e7 28 92 3d 7a b7 40 3d 82 54 ec 3c
       0.030037012 0.07136708 0.047049977 0.02884889
000010 ac 7a ef 3c 82 10 12 3d 1f d2 2b 3d 2c 91 65 3d
       0.0292333 0.035660274 0.041948434 0.05604665
000020 86 0f 93 3d d8 8a 06 3d 8c 4d 36 3d 97 27 1f 3d
       0.07180695 0.032847255 0.04450755 0.038856115
000030 11 23 30 3d 41 60 00 3d 9a 82 9e 3d ff 9c 17 3d
       0.043002192 0.031341795 0.07739754 0.037014958
000040 ed c1 79 3d f6 e7 34 3d 18 0d 09 3d 03 d9 1c 3d
       0.060975958 0.044166528 0.033459753 0.038292896
000050 ce 0f 2a 3d 4e ec 5a 3d d0 f2 06 3d cb d3 12 3d
       0.04151898 0.053448014 0.032946408 0.035846513
000060 bc a7 58 3d af c6 3c 3d 22 51 30 3d a6 02 1a 3d
       0.05289434 0.046087917 0.043046124 0.037600182
000070 b9 ec 2a 3d f9 a7 10 3d 07 12 7e 3d 86 f3 45 3d
       0.041729663 0.03531644 0.06202891 0.048327945

block_3.0.parametrizations.weight.original f4 [64, 1, 129, 1]
000000 0b 5e 55 3c 88 6b 99 bc ed f6 a7 bc 74 d9 50 bb
       0.01302291 -0.018728033 -0.020503486 -0.0031867893
000010 80 76 2b bb 9b 59 67 3c 6a 95 0b 3c 9a 07 3e bc
       -0.002616316 0.014120485 0.00851951 -0.011598492
000020 e3 15 ff bc 69 bb e8 bb 45 80 23 3c e5 f9 20 3b
       -0.031138366 -0.007102419 0.009979312 0.0024563011
000030 b4 87 10 bc d7 5a 5c 3c d7 9d 99 3c 21 1c 55 3c
       -0.008821417 0.013449392 0.018752022 0.013007195
000040 d3 26 c4 3b b1 ac f8 bc 0c 88 2f bc 5c 42 8e bc
       0.0059860735 -0.030355783 -0.010713588 -0.017365627
000050 4c f0 c4 bc 90 e7 08 bd 56 18 a5 bc 37 79 46 3c
       -0.024040364 -0.03342396 -0.020153206 0.012113861
000060 90 c2 77 bb c5 e4 f6 b9 6a a7 72 3b 70 cb 0a bd
       -0.0037805177 -0.00047091223 0.0037026056 -0.03388542
000070 fa 1c 40 bc 74 55 dc bc 65 1b b7 bc e5 dd ee bb
       -0.011725659 -0.026896216 -0.02235193 -0.0072896355
000080 73 7a a9 bc 36 1f eb 39 22 eb 6e 3b c3 1d 84 3c
       -0.020688271 0.00044845947 0.0036456068 0.016127473
000090 9f 91 a3 bc a9 b7 be bc 77 7f 52 3c 89 9f cb bc
       -0.019966898 -0.023280935 0.012847773 -0.024856346
0000a0 87 03 18 3c 8c 00 66 3c c9 07 1c bd 8c 91 cb 3c
       0.009278185 0.014038216 -0.038093362 0.024849676
0000b0 85 af cc bc 3a e0 ea bb d2 b8 58 3c bc 2b 92 bc
       -0.024986038 -0.007167843 0.013227658 -0.01784312
0000c0 0e fd 34 bc e5 db 39 3c 03 cd 8c 3b 27 2b e8 bb
       -0.011046661 0.011343931 0.0042969002 -0.0070852223
0000d0 2b 67 de bc 52 23 e0 39 af 73 9b bb b5 eb 05 3c
       -0.027148804 0.00042750925 -0.004744015 0.008173873
0000e0 5b 8f 85 3c ad b2 98 bc ca 89 9f bc 3e 43 8e 3c
       0.016303709 -0.018639887 -0.019474883 0.017366048
0000f0 24 8e 80 3c 60 dc 1e bc 73 0c a7 bc aa 05 0d bc
       0.015692778 -0.009696096 -0.020391678 -0.008607307
000100 d2 bb 11 bc d1 de 21 bc a5 34 b7 3c 83 20 b0 bc
       -0.0088948775 -0.009879784 0.02236397 -0.021499878
000110 35 24 91 bc f6 08 2e bc 75 40 04 bd c3 0a 07 bd
       -0.01771746 -0.010622254 -0.032288034 -0.032969248
000120 e2 1b 82 3c d6 8c e3 bc 1c 94 b9 bc ba f2 c2 bc
       0.015882436 -0.027777117 -0.022653632 -0.023797382
000130 1c 4d 87 bc 82 76 5f 3c ea e8 99 bc 2d 6a 5d bc
       -0.01651626 0.013639094 -0.01878782 -0.013514084
000140 a5 9d c5 ba 25 96 53 bb 4e 56 e6 bc 41 37 4c 3a
       -0.0015076889 -0.0032285538 -0.028117325 0.0007790216
000150 75 d2 5b 3a 7f 53 9f bc 4e b3 86 3c b5 3e f4 bc
       0.00083855476 -0.019448994 0.016442921 -0.029815057
000160 4a df 53 bc 22 e0 16 bd 0a c6 4e bc a2 0a c6 bc
       -0.012931654 -0.036834843 -0.012620458 -0.024174992
000170 bf 6a 04 bd 61 54 f8 bc b5 62 e9 bc ce e8 9b 3b
       -0.032328364 -0.030313672 -0.02848945 0.004757977
000180 4a ff 83 bc 40 94 af bc 5a dd 84 3b 44 9f ac 3b
       -0.016112942 -0.021432996 0.0040547075 0.0052680094
000190 d0 52 20 bd 9c b8 10 bd 5f 26 b1 bc 49 ea 09 bb
       -0.039141476 -0.035332307 -0.021624742 -0.0021044186
0001a0 2e 4c 44 bc 8b 18 0b 3c c6 35 bb bb 9f 59 c1 bc
       -0.011981053 0.008489738 -0.0057131974 -0.023602305
0001b0 f7 2a a6 bc 9b 9f 41 3b fd 06 cb 3b 3f 4f 66 ba
       -0.02028416 0.0029544595 0.0061959014 -0.00087856123
0001c0 b5 6b bb bc d8 fc 08 bd e2 2f 9a bc 14 a7 74 bb
       -0.022878507 -0.033444256 -0.01882166 -0.0037331032
0001d0 ed 51 e6 bc e6 ab d7 bc 01 b8 d2 3c c5 41 65 bb
       -0.028115237 -0.026327085 0.025722506 -0.0034981829
0001e0 c7 be 23 3c de 58 72 bc c5 34 fc bc 92 94 7d 3c
       0.009994215 -0.014791695 -0.030786881 0.015477316
0001f0 24 35 6a 3c 5a 0b c3 bc c2 32 3c 3c 11 6d 0f 3c
       0.014294896 -0.023809124 0.011486711 0.008754031
000200 43 57 5b 3b 5e 20 b9 bc b6 60 20 bd 25 b9 66 3b
       0.003346876 -0.022598442 -0.03915473 0.003520557
000210 6c 70 db b8 37 9a 78 bc 90 7a 27 bd 8c 3b 01 bd
       -0.00010463674 -0.015173486 -0.04088837 -0.03155093
000220 59 3a ac bc 68 88 8a bc 7e 7a 20 3c c1 18 46 bb
       -0.021023916 -0.016910747 0.009794829 -0.0030227157
000230 e7 9e f8 bc ef 83 e2 bc 3d 11 c0 3b 6f 37 06 bd
       -0.030349208 -0.027650801 0.00586143 -0.03276771
000240 09 13 4c bc 31 9b dc 3c fa aa 1e bc 43 8b 2e bc
       -0.01245571 0.02692947 -0.009684319 -0.01065332
000250 91 95 03 3c 31 ae 78 bc 69 c9 23 bd f7 b1 fe 3b
       0.008031265 -0.015178249 -0.039987 0.00777268
000260 3f 28 11 bc be 92 63 bc bb d9 9c bc a6 81 82 bb
       -0.008859693 -0.0138899665 -0.01914679 -0.0039827405
000270 d0 8f d3 bc b9 b8 fb b8 be 2a 1b bd fe cc b5 3b
       -0.025825411 -0.0001200302 -0.03788256 0.0055481186
000280 b5 77 47 3c 7f d7 f7 bc 06 6a dc bc cb d2 18 bd
       0.0121745365 -0.030254124 -0.026906025 -0.037310403
000290 ee 6d 07 3c e2 46 4c bb 41 d5 8f 3b 05 38 96 3b
       0.008265955 -0.003117018 0.0043894355 0.004584315
0002a0 ae e4 64 3b 94 48 9a 3b 2a c3 95 bc 21 e0 98 3b
       0.0034926343 0.004708359 -0.018281538 0.00466539
0002b0 7a 1e f0 bb 3b b6 e3 3b aa f5 91 3b bf b2 d6 3a
       -0.007327852 0.006949214 0.0044543343 0.0016380175
0002c0 a7 3f 6d 3c e3 28 b8 bb 49 f1 b2 bc 2d e9 f2 bb
       0.014480508 -0.0056201085 -0.02184357 -0.0074130506
0002d0 bf 53 24 3b f2 7a 53 3c 4e f6 85 bb b4 ba eb 3a
       0.002507433 0.01290773 -0.0040881997 0.0017984719
0002e0 aa 2c 1f bb e0 58 ae bc ef a9 ed bc 2c 50 84 3b
       -0.0024288096 -0.021282613 -0.029011695 0.0040378775
0002f0 c0 a1 d9 bc dd 0e 47 3c 85 d3 a9 3a 92 44 fd bb
       -0.026566386 0.01214954 0.0012956714 -0.0077291215
000300 57 4f 0b bb b3 86 6a bc 9d 89 cb b9 f3 9f a8 39
       -0.0021257007 -0.014314341 -0.00038821707 0.00032162628
000310 2d 34 ce bc c4 8f 6f 3b 10 f4 b9 bc da 08 92 3b
       -0.025171364 0.0036554197 -0.022699386 0.0044566216
000320 70 c4 1f 3b 28 72 be ba 91 74 1d 3c 78 db d8 bc
       0.002437856 -0.0014529871 0.009610311 -0.026471838
000330 b7 94 43 bc 0f 90 f7 bc ad 2d e2 bc ff e4 bc bb
       -0.011937312 -0.03022006 -0.02760967 -0.005764603
000340 97 02 06 3b 2f 07 14 bd ac 05 1c bd 53 9c 9c ba
       0.002044832 -0.036139663 -0.038091347 -0.0011948444
000350 76 a4 76 bc cd c1 36 bc a1 3a be bc 3c a2 f3 bc
       -0.015053859 -0.011154604 -0.023221316 -0.029740445
000360 05 cf 0e bd b5 96 77 bb 29 30 83 bc b4 e7 1e bd
       -0.034865398 -0.0037779037 -0.016014175 -0.038795188
000370 bb 87 02 bd 29 64 d5 bc bf c1 12 bd 17 d0 94 bc
       -0.031867724 -0.026048737 -0.035829302 -0.018165631
000380 42 af cb bc 05 b1 ee bc 32 9c b7 bc 7d 36 3f 3c
       -0.024863843 -0.029137144 -0.022413347 0.011670706
000390 d3 57 14 bd 1f 89 1d bd c3 09 5f bc 2b 43 14 bd
       -0.03621657 -0.038460847 -0.013613167 -0.03619687
0003a0 d1 68 92 bc 81 13 9c bc c5 ed 02 bd 4d 46 0a 3a
       -0.017872246 -0.019052269 -0.031965036 0.0005274758
0003b0 81 59 82 bb 64 6c 03 bd 94 da ce bc 50 2b e3 bb
       -0.003977955 -0.03208579 -0.02525071 -0.0069326535
0003c0 5c f7 7b bc 0a a0 ea bc 4b cc d3 bc 8e ce 6f bc
       -0.015378799 -0.028640766 -0.02585425 -0.014636649
0003d0 93 2f 92 bb 6e b5 c2 bc 78 a0 5b 3a e7 81 f6 3c
       -0.0044612377 -0.023768153 0.0008378099 0.03009124
0003e0 6b 12 e2 3b 2a b4 29 3c 85 c9 ef bc 6b ff f8 bc
       0.0068991682 0.010357896 -0.029270897 -0.03039523
0003f0 f3 b6 ca bb fb 76 7b bc e5 01 ae 3c 2b 51 59 bc
       -0.00618636 -0.015348191 0.021241138 -0.013263981

block_3.1.weight f4 [64]
000000 42 63 7e 3f 21 2b 81 3f fe fc 7e 3f 3c b9 7f 3f
       0.99370205 1.0091287 0.99604785 0.9989202
000010 5b 47 7e 3f 24 77 7c 3f f4 a7 81 3f a1 65 7f 3f
       0.9932763 0.98619294 1.012938 0.9976445
000020 9c 89 81 3f 39 30 81 3f 3d ab 7e 3f b1 49 7d 3f
       1.012012 1.0092841 0.9948004 0.9894057
000030 0e 3f 80 3f 2e 58 80 3f f5 3a 7e 3f 2d 5b 80 3f
       1.0019243 1.002691 0.9930871 1.0027825
000040 2a e9 80 3f 80 13 80 3f 0b e0 80 3f 32 8b 80 3f
       1.0071156 1.0005951 1.0068372 1.0042479
000050 5d 5e 80 3f b9 22 7f 3f c8 5f 7e 3f 26 72 80 3f
       1.0028797 0.9966236 0.993649 1.0034835
000060 89 ae 7d 3f 75 be 7f 3f 54 5f 80 3f 72 4d 81 3f
       0.99094445 0.9989999 1.0029092 1.010176
000070 ae f8 7f 3f 98 29 80 3f 0f 7c 7f 3f 76 fb 7c 3f
       0.9998883 1.0012693 0.99798673 0.988212
000080 61 7a 81 3f e3 e3 7e 3f 28 39 7f 3f 33 2c 7f 3f
       1.0115472 0.9956648 0.9969659 0.9967682
000090 af d1 7e 3f 20 8a 80 3f 17 38 7e 3f bf bd 7e 3f
       0.995387 1.0042152 0.99304336 0.9950828
0000a0 a0 8f 7f 3f 3e f7 81 3f 6b e6 7e 3f 6f 0c 7f 3f
       0.9982853 1.0153577 0.9957034 0.9962835
0000b0 c5 9e 7e 3f 84 a3 7e 3f 7f 20 80 3f bf 5c 80 3f
       0.99461013 0.99468255 1.0009917 1.0028304
0000c0 54 89 80 3f ee 2e 81 3f 43 04 7e 3f 22 23 80 3f
       1.0041909 1.0092447 0.9922525 1.0010722
0000d0 dd 2b 7f 3f 90 8d 80 3f 05 fe 80 3f 2a 2a 80 3f
       0.99676305 1.0043201 1.0077521 1.0012867
0000e0 d1 2c 7c 3f 5b 65 7f 3f 3d 11 7f 3f ae 8f 80 3f
       0.98505884 0.9976403 0.9963568 1.0043848
0000f0 f1 d0 7d 3f 04 ff 80 3f 97 f4 7b 3f ac 09 7f 3f
       0.99146944 1.0077825 0.9842009 0.99624133

block_3.1.bias f4 [64]
000000 1c 18 67 3c b2 1a a2 3c 8c 6b cc 3b 79 37 32 3c
       0.014104869 0.01978812 0.0062384065 0.0108774835
000010 d4 35 8e 3b a5 90 2e 3b aa 00 9f 3c a9 ba a1 3c
       0.004339913 0.0026636508 0.019409496 0.019742327
000020 2f c6 a5 3c 1b eb 87 3c 33 7e e6 3b cd 10 57 3c
       0.020236103 0.0165916 0.007034087 0.013126564
000030 2b 6b a3 3c 41 8b 9d 3c 78 3f 81 3c 1c c6 a0 3c
       0.019948563 0.01923144 0.015777335 0.019625716
000040 54 8a 6e 3c ab eb d7 3b 9a 9a 9f 3c d2 20 b2 3b
       0.014559347 0.006589373 0.0194829 0.0054360414
000050 40 4e cd bb 8e db b5 b8 54 71 80 3c d3 8d 2d 3c
       -0.0062654316 -8.671648e-05 0.015679039 0.010592896
000060 60 97 51 b6 6b 35 a0 3c 31 18 a0 3c 19 28 74 3c
       -3.1231539e-06 0.019556722 0.019542785 0.014902138
000070 7d 9c a0 3c 60 b7 a1 3c 8d 6f a0 3c b9 b3 0c 3c
       0.01960587 0.01974076 0.019584442 0.008587771
000080 12 37 9e 3a 98 c8 9d 3c ee 1a 9f 3c b0 39 88 3c
       0.0012070856 0.01926069 0.01942202 0.01662907
000090 f0 af 9f 3c 46 96 a1 3c bf 46 a1 3c ca 12 e8 3b
       0.019493073 0.019724976 0.019687055 0.007082318
0000a0 93 82 15 3c b9 34 a3 3c 45 15 94 3b 3e 0b a1 3c
       0.00912537 0.019922601 0.004519137 0.019658681
0000b0 3e b9 09 3c 1a 4b 10 3c da c2 a0 3c dd 85 a2 3c
       0.008405982 0.008806968 0.019624162 0.019839222
0000c0 41 13 32 3c 54 ea a1 3c 6a a2 a0 3c e0 f9 2c 3b
       0.010868848 0.019765057 0.019608695 0.0026394054
0000d0 f7 8a f8 bb f5 5a 8a 3c c8 12 eb 3b 0b 75 96 ba
       -0.0075849253 0.016889075 0.0071738698 -0.0011478973
0000e0 77 25 cb bb 30 18 a5 3b 4e 0c 6f bb 29 4d a2 3c
       -0.0061995345 0.0050382838 -0.003647584 0.019812183
0000f0 da 6c 96 3c 85 9d a2 3c cd 14 26 bc fd 55 a2 3c
       0.018362451 0.019850502 -0.010136795 0.019816393

block_3.1.running_mean f4 [64]
000000 64 be 5c 3a 2c b6 c5 3a e6 47 0e 3b d6 f6 98 ba
       0.00084207044 0.0015084199 0.0021710335 -0.0011670243
000010 2e c3 9e 3b c3 ce db 3b d2 95 bc 3b c0 68 e2 3a
       0.0048450446 0.0067079975 0.0057551647 0.001727365
000020 4f 22 53 3a f3 09 a5 38 c6 dc c9 3a ee fd 5a 3b
       0.00080541236 7.869666e-05 0.0015400879 0.0033415514
000030 44 c0 16 bb 7c 33 ee ba 3b b5 3f bb 7a cf 14 bc
       -0.0023002783 -0.0018173303 -0.002925231 -0.009082669
000040 94 98 fb ba d8 15 33 3a bb 38 ea 39 29 60 23 ba
       -0.0019195252 0.0006831563 0.00044674226 -0.00062322855
000050 f2 a4 23 39 d9 b0 29 3a e6 10 42 39 bd ad 7c 3a
       0.00015606338 0.0006473191 0.00018507577 0.0009638926
000060 00 57 4c b9 58 2f 37 3b b7 6f 16 3a 2c cd 22 ba
       -0.00019487366 0.0027951803 0.00057386927 -0.00062103826
000070 15 48 02 bb ff a7 fd 3a 07 dc 71 bb ec b4 6c 3b
       -0.001987939 0.0019352435 -0.0036904828 0.003611858
000080 e4 4a 84 3b 93 27 00 ba ed 39 92 3b 8a 09 8a b9
       0.004037248 -0.00048887095 0.0044624717 -0.00026328518
000090 ed be e5 3b 94 5d ff bb 03 28 ef b9 22 45 91 ba
       0.0070112855 -0.007793138 -0.00045615443 -0.0011083225
0000a0 e6 91 21 bc 7e 1b 23 bc 7b 45 71 bb 80 b0 00 3c
       -0.009861445 -0.009955285 -0.0036815095 0.007854581
0000b0 0e 66 3e 3b 68 2e 2a bb 0d fe af 3b 3a 72 8b 3b
       0.0029052529 -0.0025967602 0.0053708614 0.00425556
0000c0 3f b9 2e bb 08 45 6a 38 19 99 ff ba 56 3a e6 3b
       -0.0026660708 5.5854238e-05 -0.0019500583 0.007025997
0000d0 c3 75 0b bb fb 92 41 bb 54 de 03 bc ab f5 a3 bb
       -0.0021279908 -0.002953707 -0.008048613 -0.005003651
0000e0 ae f7 26 3a f4 9c 13 bb 44 81 b2 3b 3d cc 05 bc
       0.00063693046 -0.0022523971 0.0054475386 -0.00816637
0000f0 a4 ed c6 b9 e5 70 87 3b ae d6 59 b8 3f e7 b8 ba
       -0.0003794256 0.004133331 -5.1936768e-05 -0.0014107003

block_3.1.running_var f4 [64]
000000 98 f8 9b 3d 63 62 69 3d 51 b2 23 3e 43 0f 2e 3e
       0.07615775 0.056978595 0.15985991 0.1699801
000010 d6 27 dd 3d 90 c3 45 3e 10 2e c5 3d 87 b7 48 3d
       0.10798614 0.19312882 0.09627926 0.04900315
000020 e8 6d 99 3d 16 4f d0 3d a2 39 80 3d d2 88 cc 3d
       0.07491666 0.101713344 0.062609926 0.09987034
000030 06 33 a9 3d 39 07 9e 3d c1 3c 8e 3d 25 69 30 3d
       0.08261685 0.07716221 0.06945182 0.043069024
000040 c2 59 1e 3d 49 12 2a 3d b4 66 67 3e 51 f3 20 3e
       0.03865982 0.041521344 0.22597772 0.15717818
000050 cd f5 99 3d eb d6 3b 3e 52 af 29 3d eb 45 2e 3d
       0.07517586 0.18343703 0.041426964 0.042547148
000060 1f 38 45 3d cb d8 58 3d ee 92 98 3d 99 4d 81 3d
       0.048149224 0.052941125 0.074498996 0.06313629
000070 e9 1c 3b 3d f3 af 6c 3d 63 0f 32 3e ce 48 31 3e
       0.045681868 0.057784986 0.17388682 0.17312929
000080 17 ff 12 3d 4a a3 e8 3c f0 e2 97 3d 14 da 41 3d
       0.035887804 0.028398175 0.07416332 0.047327116
000090 8d 1a 12 3d 8e 5b 1d 3d 0c 95 96 3d d9 8d 16 3e
       0.035669852 0.03841739 0.07352647 0.14702548
0000a0 a1 d7 29 3d da a4 b9 3c f1 41 54 3d 43 4a 07 3e
       0.041465405 0.022661615 0.0518207 0.13211922
0000b0 de ce f1 3e b1 18 a4 3e af ba 11 3e 53 52 42 3e
       0.4722814 0.32050088 0.1423137 0.18976717
0000c0 da c1 0f 3d 39 66 03 3d 58 db b4 3d 60 72 e9 3d
       0.03509698 0.03207991 0.08830899 0.113987684
0000d0 f0 3f 83 3d c7 95 d5 3d 3e 99 87 3d fe 2f 97 3d
       0.064086795 0.104289584 0.066210255 0.07382201
0000e0 33 f3 a5 3d f5 a4 7a 3d f0 76 dc 3d 69 33 69 3e
       0.08103027 0.06119247 0.10764873 0.22773518
0000f0 3b 9f c5 3d 07 a0 af 3e 79 1b 3a 3d fd b9 57 3e
       0.096495114 0.3430178 0.045436356 0.21067043

block_4.0.weight f4 [32, 64, 1, 16]
000000 e6 56 5d bc c0 18 93 bc dc c2 06 bc b9 6a a6 3b
       -0.013509488 -0.017956138 -0.008225169 0.0050786403
000010 0a 2f 7a 3b ab 58 50 bb 8f 8c 8f bc f6 14 b0 b9
       0.003817501 -0.0031791131 -0.017523078 -0.00033584953
000020 cd 8c c2 bc 0f 75 d6 3c 24 c6 22 bc 04 b6 99 3c
       -0.02374878 0.026178865 -0.009934936 0.01876355
000030 4d f6 7f ba 6c 9a f5 3c 60 68 0b 3d 5c a7 e9 3c
       -0.00097641797 0.02998086 0.034035087 0.028522186
000040 28 8e a0 bc 98 f1 77 bc 60 8b ca bb 44 a1 75 bc
       -0.019599035 -0.015133284 -0.0061811656 -0.014992062
000050 67 87 b7 bc 98 0d 9a 3c cf ca 7a 3c 19 4b 03 3d
       -0.022403432 0.01880531 0.015307142 0.03205404
000060 b4 d2 9b 3c ee 74 ce 3c a8 5b 2b 3b 61 f4 46 bb
       0.01902137 0.02520224 0.002614716 -0.0030358064
000070 79 a7 88 bc 50 f9 5f 3b b7 87 8d bb 74 5f 12 3b
       -0.01668142 0.0034175701 -0.004319157 0.0022334727
000080 f7 b9 8e 3c 29 c5 cf 3b c0 9f e5 bc bf 22 04 3d
       0.01742266 0.006340642 -0.028030276 0.0322597
000090 67 dc 48 3b 2c ac b4 3c ee ce de 39 6b 3b 03 bc
       0.0030648948 0.022054754 0.00042497314 -0.008009772
0000a0 96 d5 11 3d 5f e5 d8 bc 0c a6 06 3d 3c 46 bf 3c
       0.035604082 -0.02647656 0.0328732 0.02334892
0000b0 8d 7c 0c bc aa ab 52 3c 6e a7 3a 3b 0f ea d3 bc
       -0.008574617 0.012858311 0.0028481144 -0.025868444
0000c0 9d 76 cf bb 22 69 ad 3c 81 09 c0 3c 45 19 01 bc
       -0.0063312785 0.021168295 0.023442032 -0.00787956
0000d0 99 30 89 3a 47 1b 07 3d 28 8f 9b bc e2 df c9 bb
       0.0010466754 0.032984998 -0.01898916 -0.006160722
0000e0 59 6e c3 bc f0 cb a6 bc 97 5d a9 bc f6 ee 7d bb
       -0.023856329 -0.020360917 -0.02067451 -0.0038747168
0000f0 fd 16 12 3d b0 de 18 3d a4 40 03 3d e8 38 2b 3c
       0.035666455 0.037321746 0.032044068 0.010450579
000100 73 d9 84 3b fd 5a 3a 3c 0e 75 0a 3d 43 42 c3 3c
       0.0040542423 0.011374232 0.03380304 0.023835307
000110 3e 95 b9 3c dd c8 1e bc ad 95 11 bc e7 1f 86 3c
       0.022654172 -0.009691444 -0.008885783 0.016372634
000120 84 cb 7f bc 9b fd 93 3c 7f 00 b5 bc 4d 97 ec 38
       -0.015612487 0.018065264 -0.022094963 0.00011281539
000130 1c 55 eb bc 25 ff 03 3d df 8b fa 3c b0 e4 d3 3a
       -0.028727107 0.032225747 0.030584274 0.0016166177
000140 9c 90 d7 3b 29 e2 23 3c cb 8d d0 3a 97 da a9 bc
       0.006578518 0.010002651 0.0015911398 -0.020734115
000150 fb ff d8 3c 81 94 94 3b 3c 11 01 3d 45 67 67 bc
       0.026489248 0.0045343046 0.031510577 -0.0141237425
000160 02 51 37 bc 22 57 ad 3b e0 2f 8d 3c b5 66 2c bc
       -0.011188747 0.005289928 0.017234743 -0.010522534
000170 72 a2 0f 3d 49 43 a8 3b 1c 7a f3 3b 8c b8 ac bc
       0.03506703 0.005134974 0.007430328 -0.021084093
000180 75 ff 66 3c 2a fd e6 3c e5 0d 77 3c a6 62 80 bc
       0.014098992 0.02819689 0.015078996 -0.01567204
000190 e0 fa e8 3b 05 bb 0d 3d 80 3a cf 3c 79 eb 05 bc
       0.0071099848 0.034602184 0.02529645 -0.008173817
0001a0 e5 69 32 3d 29 1f 65 bc 6c e5 92 3a b6 54 ee 3c
       0.04355802 -0.01398448 0.0011207289 0.029093128
0001b0 7d fa 7a 3c 98 cb 00 bd 06 ab 95 ba 5c e5 a8 bc
       0.01531851 -0.031444162 -0.0011418767 -0.02061718
0001c0 55 13 a8 bc 90 8a 2d 3a 24 06 93 bb 19 5e 8b 3c
       -0.02051703 0.00066200737 -0.004486816 0.017012643
0001d0 39 62 98 bb 49 66 1c bc 43 56 8d 3b d9 a5 e5 3c
       -0.004650381 -0.009545871 0.0043132617 0.028033184
0001e0 d0 f3 11 3d 63 fd b5 bc be f6 c1 bb c9 8b 45 bb
       0.03563291 -0.02221555 -0.0059193065 -0.0030143133
0001f0 4f b4 2f 3d 11 6b ef 3c ae b1 81 bc bb 47 3a bc
       0.042896565 0.029225858 -0.015831795 -0.011369641
000200 1d ee 54 bc 9b 7f 4c bc 6a 08 15 3c 0c d0 c6 bb
       -0.012996224 -0.012481595 0.009096244 -0.0060672816
000210 b6 56 a3 bc 43 28 92 bb 35 66 6c 3c 1f 84 44 3b
       -0.019938808 -0.004460366 0.014428665 0.0029985977
000220 e2 ad 7c 3c 97 d5 99 bc bd f7 07 bc ee e1 34 bc
       0.015422316 -0.018778605 -0.0082988115 -0.011040194
000230 2c 20 f7 3b 2f 9f cf 3c d7 a9 4f 3c 32 cc ac 3c
       0.007541677 0.02534446 0.01267477 0.021093462
000240 e8 29 70 bc 2d a5 3d bc 9a 8d c6 bb bf ba b5 bb
       -0.014658429 -0.0115750255 -0.0060593607 -0.0055459435
000250 ae 67 d5 3b b2 a1 99 3c cd 35 51 3c 3b 9e 3e bc
       0.0065126037 0.01875386 0.012769175 -0.011634405
000260 c3 f4 07 3d 8a 94 13 3d 1c 3b 9b bc 90 fc be bb
       0.033192407 0.03603033 -0.018949084 -0.0058284476
000270 1e 66 c6 3c 92 2f fa 3c 97 74 68 bc a6 cd c8 bb
       0.024218615 0.030540261 -0.014187953 -0.006128031
000280 b2 d9 fb bc 7f 9b 64 bb 72 ae e7 b8 d1 16 48 3c
       -0.030743454 -0.0034882722 -0.00011047431 0.012212471
000290 70 0a 85 bc 14 2c 41 3c 3f 0e aa bc af fb 00 3d
       -0.016240329 0.011790294 -0.020758746 0.031490024
0002a0 44 b7 c2 bc 80 05 cd bc ee 1f 0c 3d 2a a3 c8 3c
       -0.023769028 -0.025027037 0.034210138 0.024491865
0002b0 c2 fa de 3c e1 43 88 bc 4a b9 be 3c 46 fb c7 3c
       0.02721918 -0.01663393 0.023281712 0.024411809
0002c0 36 ed 86 3b 86 c8 7e 3c b4 f6 ca 3c 8c 20 80 bc
       0.004117633 0.015550738 0.02477584 -0.01564052
0002d0 cd 6a cd 3c 6b 4c 6d bb 2c cd cb bc ba 55 06 3d
       0.02507534 -0.0036208879 -0.024878107 0.0327966
0002e0 ef 15 42 bc ae bb 45 bb fe 48 ba 3c 67 ff 92 3c
       -0.01184605 -0.003017168 0.022739884 0.017944051
0002f0 cb 29 a7 bc 89 71 b0 bc de 6f 04 3d d5 34 e3 3c
       -0.02040567 -0.021538513 0.032333247 0.027735153
000300 13 20 e6 bb aa 62 2a bc ea 0d 23 3c df ae 04 3d
       -0.0070228665 -0.0103995 0.009952048 0.032393333
000310 a9 64 00 3d b3 5e d2 3b e6 02 fe 3c 2c ef cf 3c
       0.031345997 0.0064199804 0.031007241 0.0253826
000320 6f a2 0c 3b 5c d5 29 3d 52 53 ab bc 19 cd 97 3c
       0.0021459123 0.04146324 -0.020913754 0.018530415
000330 9a 20 79 bc c3 6b 47 bb e1 e7 b0 bb 5e e3 e4 3c
       -0.015205527 -0.0030429221 -0.005398736 0.027940448
000340 cb 1e 0d 3d 10 26 1a bc 23 8b 9a 3c fb 9a dd bc
       0.034453195 -0.009408489 0.018865174 -0.02705144
000350 99 a0 c5 3c ee b4 eb 3b 3d 7b 96 3c 2f 8e 97 3b
       0.02412443 0.0071931994 0.018369311 0.004625104
000360 7d fb e7 3b 00 68 ad bc 3b 11 c0 3c 80 24 f3 3c
       0.0070795403 -0.021167755 0.023445716 0.02968049
000370 5d 59 a8 3c c3 29 c9 3c 29 e4 40 3b 66 f3 2a bb
       0.020550424 0.024556046 0.002943287 -0.0026085018
000380 58 ba fc ba ca c5 a1 bb df 07 fc 3b 9f c2 f0 3c
       -0.0019281609 -0.0049369084 0.007691368 0.029389678
000390 b0 3c 2b bb 38 60 96 bc 48 ff fb 3c 05 49 5d 3b
       -0.0026128702 -0.018356428 0.030761376 0.0033765447
0003a0 84 3d 05 3d 7a ec df 3c d4 03 a1 3c c3 b4 c5 bb
       0.03252937 0.02733444 0.019655146 -0.0060335114
0003b0 94 7f e4 3c 5a 69 f0 3b fd 3a 2c bc 71 1e f7 3b
       0.027892865 0.0073367776 -0.010512111 0.0075414707
0003c0 28 0a a7 3c 1e 6b fd 3a 31 bd b0 bc cf 3d 0b bb
       0.020390585 0.0019334292 -0.021574588 -0.0021246558
0003d0 56 39 d1 3c ef 83 58 3c 1a 28 1c 3d c3 dc 54 bc
       0.025540035 0.013215049 0.03812418 -0.012992087
0003e0 62 40 39 bc ec bf 9d 3c 5e 42 e2 3c 07 6d b9 3c
       -0.011306854 0.019256555 0.027619537 0.022634996
0003f0 7f 41 21 bc 62 ae 97 bc f3 09 e1 bc ca 6f ef 3a
       -0.009842276 -0.01851577 -0.027470564 0.0018267569

block_4.1.weight f4 [32]
000000 ef 53 7d 3f 54 29 81 3f 35 a0 7f 3f 5f 89 81 3f
       0.989562 1.0090737 0.9985383 1.0120047
000010 8b ca 80 3f 6e 4f 7c 3f 3e 6e 7f 3f d6 9c 7f 3f
       1.0061811 0.985587 0.9977759 0.9984869
000020 a9 05 81 3f 94 bf 7d 3f a0 73 81 3f 70 41 7d 3f
       1.0079852 0.9912045 1.0113411 0.98927975
000030 4b 69 81 3f 72 23 7f 3f e2 71 7d 3f fb bd 7c 3f
       1.0110258 0.9966346 0.99001896 0.9872739
000040 a2 a4 7f 3f 63 e8 7e 3f 8a 18 80 3f bd 09 7e 3f
       0.99860585 0.99573344 1.0007489 0.9923361
000050 8e 03 7e 3f af fd 7f 3f 0a b2 7f 3f c1 9e 81 3f
       0.99224174 0.99996465 0.9988104 1.0126573
000060 74 24 80 3f cd 7d 7c 3f 24 ca 7c 3f f5 32 82 3f
       1.0011125 0.98629457 0.9874594 1.0171801
000070 f8 f8 80 3f 6c 76 7b 3f cc ff 7f 3f 47 aa 81 3f
       1.0075979 0.9822757 0.9999969 1.013009

block_4.1.bias f4 [32]
000000 87 52 9c bc f8 5d 98 3c 58 63 a0 bc df e5 a5 bc
       -0.01908232 0.018599495 -0.01957862 -0.020251213
000010 d6 e9 99 3c c8 c4 26 bc 98 0d 67 bc 58 a4 8e bc
       0.01878826 -0.010178752 -0.014102362 -0.01741235
000020 a7 d1 a5 3c f0 05 88 3c f2 62 4e 3c 78 a8 48 3c
       0.020241572 0.016604394 0.012596833 0.012247197
000030 c9 b7 a0 3c 29 5f 71 bc 42 df fa 3b 7b 89 9d bc
       0.019618886 -0.014732161 0.007656009 -0.019230595
000040 77 29 24 bc 23 7b 09 bc 0d 28 8a 3c cf 26 9b bc
       -0.010019652 -0.0083911745 0.0168648 -0.018939404
000050 30 6b a3 bc a9 99 9b 3c dd b2 92 ba 5a 84 a5 3c
       -0.019948572 0.01899417 -0.0011192221 0.020204712
000060 cc 1b a1 3c 01 04 42 3c cf b1 d5 ba e0 d2 a1 3c
       0.019666575 0.011841775 -0.0016303601 0.019753873
000070 94 6b 94 bc bd 8c 22 3c 68 97 a1 3c 06 27 a1 bc
       -0.018117703 0.00992125 0.019725516 -0.019671928

block_4.1.running_mean f4 [32]
000000 40 ac d0 3e 1b c7 01 bf 09 5d b8 3e 2f 3b 00 3d
       0.40756416 -0.50694436 0.3600848 0.031306442
000010 64 da 78 3d 24 cc 81 be 45 26 f1 3e 8c 89 2d 3e
       0.06075515 -0.2535106 0.4709951 0.16947001
000020 84 55 1c bf 01 35 52 3e 50 bb 6c 3e 66 57 4a 3e
       -0.61067986 0.20528032 0.23118329 0.19759902
000030 34 2a c0 bd b2 5e 31 3d a1 14 d8 3d c7 4b 64 bd
       -0.093830496 0.0433032 0.1055081 -0.05573633
000040 d6 c6 88 3e 07 cb 00 bf a4 67 81 be c1 72 5a 3e
       0.267142 -0.50309795 -0.25274384 0.21332838
000050 50 76 75 3e 18 49 84 be 78 3a cc be c8 17 9a be
       0.23970914 -0.25837016 -0.39888358 -0.3009627
000060 92 b7 d5 be 69 43 fd 3d e3 55 32 be 51 64 cf be
       -0.41741616 0.12366373 -0.17415576 -0.40506223
000070 58 5d 7a 3d df 7d e9 bc 8b e9 bb be 1d 9b 32 3e
       0.061124176 -0.028502403 -0.36701617 0.17441984

block_4.1.running_var f4 [32]
000000 99 ad 86 3f 44 e1 b8 3f fd ef 4b 3f 25 99 3f 3f
       1.0521728 1.4443746 0.7966307 0.74843055
000010 96 5a 1e 3f 84 25 0b 3f 09 e7 9a 3f ac d9 13 3f
       0.61856973 0.5435412 1.2101756 0.57754016
000020 df 25 1a 40 95 b8 dc 3e 04 80 22 3f ee 40 18 3f
       2.4085615 0.43109575 0.63476586 0.59474075
000030 9c 25 2d 3f 8d f0 1a 3f 00 70 05 3f 40 81 99 3e
       0.6763551 0.605233 0.52124023 0.29981422
000040 eb da 44 3f 84 d0 d2 3f 8f 1c 90 3f 6b aa 48 3f
       0.7689654 1.6469884 1.1258715 0.7838504
000050 08 3a 0f 3f 7e 2a 48 3f e8 b5 8b 3f 95 f3 33 3f
       0.55947924 0.7818984 1.0914888 0.7029355
000060 fd 0e a4 3f 8b dd b4 3e 5f c0 2c 3f f0 bd 83 3f
       1.2817074 0.35325274 0.67481035 1.0292339
000070 c4 d5 1a 3f 26 f1 e9 3e cd e7 88 3f 3e 79 e5 3e
       0.6048243 0.45691794 1.069574 0.44819063
