examples/eeg2025/weights_challenge_2.pt (torch, 261899 bytes, 26 tensors)

block_1.1.weight f4 [8, 1, 1, 64]
0	0xbb705ce2	-0.0036676456
1	0x3db1e11c	0.08685514
2	0x3d46dbbe	0.048549406
3	0xbd955738	-0.07292026
4	0xbd8453ea	-0.06461318
5	0x3c242c5d	0.010020343
6	0xbcbf4d46	-0.023352277
7	0x3c0e5697	0.008687637
8	0xbd1ec310	-0.038760245
9	0xbdc190c1	-0.09451438
10	0xbcf662d4	-0.030076422
11	0xbdc4b893	-0.09605517
12	0xbd164cf7	-0.036694493
13	0xbd22ffab	-0.039794605
14	0xbd8f478a	-0.06996067
15	0x3d9645bf	0.07337522
16	0x3cb112b6	0.021615367
17	0x3d95e77f	0.07319545
18	0x3de2c33c	0.11072394
19	0x3d83ed16	0.06441705
20	0x3df9a3ec	0.12189469
21	0xbd8e9713	-0.06962409
22	0xbdced8dc	-0.100999564
23	0xbd0cc6b2	-0.034369178
24	0xbdbdbea4	-0.092648774
25	0xbdb106e2	-0.08643891
26	0x3d26e8bf	0.040749308
27	0xbda519a4	-0.08061531
28	0xbd349ab8	-0.044092864
29	0xbd729e98	-0.059233278
30	0xbd8bf001	-0.068328865
31	0xbd94bd6e	-0.07262693
32	0x3d7f2736	0.062293254
33	0x3dd91b02	0.106008545
34	0x3dac2bfa	0.08406825
35	0xbda512b3	-0.08060207
36	0xbdb25ed2	-0.08709492
37	0xbdbc7456	-0.09201877
38	0x3c6406d1	0.013917641
39	0xbdd83e98	-0.10558814
40	0xbd864c95	-0.065575756
41	0xbdd5c05d	-0.10437081
42	0xbc89535a	-0.016763378
43	0x3e0a3a6a	0.13498846
44	0xbd15cbf4	-0.036571458
45	0x3d13c851	0.03607971
46	0xbd714694	-0.0589052
47	0x3d206b59	0.039164875
48	0x3d73337b	0.059375267
49	0x3da45742	0.080244556
50	0xbd82df65	-0.063902654
51	0x3da47c07	0.08031469
52	0xbca19610	-0.019724876
53	0x3c1a7add	0.009428707
54	0xbd181ed0	-0.03713876
55	0x3dac37d3	0.08409085
56	0x3c0947c5	0.008378928
57	0xbda44a65	-0.08022002
58	0x3d956fee	0.072967395
59	0xbd2b49f5	-0.041818578
60	0xbd446f3b	-0.04795764
61	0xbd38c873	-0.04511304
62	0xbdd3f2fd	-0.10349081
63	0x3dfb341a	0.12265797
64	0xbd2efd88	-0.042722255
65	0x3dd09e6c	0.101864666
66	0x3d0ab5b4	0.03386469
67	0xbc8e0d83	-0.017340427
68	0x3d37f715	0.04491337
69	0xbdc0c3fd	-0.09412382
70	0xbe0627d2	-0.13101128
71	0x3cd8e3a2	0.026475731
72	0xbdd33d18	-0.10314387
73	0xbd60f7b1	-0.054923717
74	0xbcfc9946	-0.030834805
75	0x3ccac63a	0.024752725
76	0xbcfe55d6	-0.03104679
77	0x3dd2d26a	0.102940395
78	0x3d722cd8	0.059124798
79	0xbd2495fd	-0.040182102
80	0x3defb46b	0.11704334
81	0x3dd15391	0.10221017
82	0x3dd13fff	0.102172844
83	0xbd8e579f	-0.06950306
84	0xbdb3c4d5	-0.08777777
85	0x3d533bbb	0.051570635
86	0xbd53dbca	-0.05172328
87	0x3c8cdcac	0.017195068
88	0xbcb0def9	-0.021590697
89	0x3d3d5536	0.04622384
90	0x3d9a0f1d	0.07522414
91	0x3c6ff530	0.01464586
92	0x3a898460	0.0010491721
93	0xbda903b2	-0.08252658
94	0xbe01c1ad	-0.12671538
95	0xbdc5e719	-0.09663219
96	0xbdf495c5	-0.11942629
97	0x3c301e86	0.010749465
98	0xbc758c44	-0.014987055
99	0xbd32fa86	-0.04369595
100	0x3d9b4b1f	0.075826876
101	0x3d8ee78c	0.06977758
102	0xbdbcf8d3	-0.09227147
103	0xbdc96e2a	-0.09835465
104	0xbc2b29de	-0.010446994
105	0xbda27974	-0.079333216
106	0x3cf2de8a	0.02964713
107	0x3d272cc4	0.040814176
108	0xbdaa257e	-0.08307932
109	0x3da1f244	0.079075366
110	0xbd877f94	-0.066161305
111	0x3bfaf8be	0.007659047
112	0xbb6c533c	-0.0036060354
113	0xbc75e5f4	-0.015008438
114	0xbda3878c	-0.07984838
115	0xbdc4fea9	-0.09618885
116	0xbc2d08f9	-0.010561221
117	0x3d6cedd9	0.057844017
118	0x3d200644	0.039068475
119	0x3da2db81	0.07952023
120	0x3d1b8f43	0.037978422
121	0x3cb85d58	0.022505447
122	0x3d3e4127	0.046448853
123	0xbd1bc51a	-0.038029768
124	0x3c927934	0.01788006
125	0x3de9d855	0.11418215
126	0x3dab5d52	0.08367409
127	0xbdab410a	-0.083620146
128	0x3d8a2d47	0.06746917
129	0xbd5ff518	-0.0546771
130	0x3d3e5238	0.04646513
131	0x3d883981	0.06651593
132	0xbd07ebe0	-0.033183932
133	0xbd68c102	-0.05682469
134	0x3bef220c	0.00729776
135	0xbbfca55b	-0.0077101416
136	0xbdd869de	-0.105670676
137	0x3da5d260	0.080967665
138	0xbde13d0b	-0.10997971
139	0x3dbed717	0.09318369
140	0x3dbe5b8b	0.09294804
141	0xbd6b0801	-0.05738068
142	0x3de9346a	0.1138695
143	0x3a1c29ee	0.0005957176
144	0xbdca215a	-0.098696426
145	0x3bbcf287	0.005766216
146	0xbdc7cacd	-0.09755478
147	0xbd9cd520	-0.07657838
148	0x3d8b3693	0.067975186
149	0xbbe5444c	-0.006996667
150	0x3d81c0de	0.063356146
151	0x3d6afacb	0.05736808
152	0x3d3de52b	0.04636113
153	0x3dc5ca80	0.096577644
154	0x3d7b4387	0.061343696
155	0x3dad0c64	0.08449629
156	0xbd18b7cd	-0.03728466
157	0x3dba5341	0.09097911
158	0xbd727bd3	-0.05920012
159	0x3c491b7c	0.012274619
160	0xbdb4ab10	-0.0882169
161	0x3d96248b	0.07331189
162	0x3da01d57	0.07818096
163	0x3da32dd2	0.07967724
164	0xbda50644	-0.08057836
165	0xbdaa8749	-0.08326585
166	0x3dd76190	0.105166554
167	0x3dc27aa5	0.09496049
168	0x3ddd9dff	0.10821151
169	0xbd1bb2d2	-0.038012333
170	0x3d73a854	0.059486702
171	0xbcff71b1	-0.031182142
172	0x3b7e89f6	0.0038839555
173	0x3d850f25	0.06497029
174	0xbdff4ddc	-0.12466022
175	0x3d34783b	0.044059973
176	0xbdd05f72	-0.10174455
177	0xbd6503b9	-0.055911753
178	0xbdc136ce	-0.09434281
179	0xbdacab66	-0.08431129
180	0x3d67e665	0.056616206
181	0xbdd82309	-0.105535574
182	0x3dab01d4	0.08349958
183	0xbd349bba	-0.044093825
184	0x3df0c99a	0.117572024
185	0x3cd274a9	0.025690394
186	0x3ce652b5	0.02811561
187	0xbd1f9892	-0.03896386
188	0x3daff49b	0.08591577
189	0xbda36bc4	-0.07979539
190	0x3d38c752	0.04511196
191	0xbcf409f0	-0.029789895
192	0xbdb9d237	-0.090732984
193	0x3c26c8d3	0.010179716
194	0xbc3269b9	-0.010889464
195	0xbd902836	-0.0703892
196	0x3dc09d1d	0.09404967
197	0x3dfb7e35	0.122799315
198	0xbc56e05d	-0.013115016
199	0x3c015f42	0.007896246
200	0x3dbc26a5	0.09187058
201	0x3d728f18	0.059218496
202	0xbde0183e	-0.10942124
203	0x3de13fd0	0.109984994
204	0xbd73fc82	-0.059566982
205	0xbca028c8	-0.019550696
206	0xbc3c684f	-0.0114994785
207	0x3d8493c1	0.06473494
208	0xbd94dfeb	-0.072692715
209	0xbc9aff94	-0.018920697
210	0x3dd359c3	0.10319855
211	0xbdcca029	-0.099914856
212	0xbd0045f6	-0.03131672
213	0xbe028e61	-0.12749626
214	0xbd978b7f	-0.07399654
215	0xbdce7b61	-0.100821264
216	0xbc4ed8d9	-0.012624943
217	0xbd994cfc	-0.07485387
218	0x3dbb2e84	0.091397315
219	0x3cb26db7	0.021780832
220	0xbde47832	-0.11155738
221	0x3c7f2927	0.015573776
222	0xbdd74b8d	-0.10512457
223	0xbda2b5d8	-0.0794484
224	0x3d2a216a	0.041535772
225	0xbd852a9f	-0.0650227
226	0x3d520697	0.051275816
227	0xbdb1fb99	-0.086905666
228	0x3dcc6417	0.09980028
229	0x3db6dac3	0.08928444
230	0x3c5cad20	0.013469011
231	0x3cda418c	0.026642583
232	0xbcb466f6	-0.022021752
233	0xbd530bec	-0.05152504
234	0x3d9b2dc6	0.0757709
235	0x3deff9f4	0.11717597
236	0x3d321a9f	0.04348242
237	0x3d27e432	0.04098911
238	0xbd56ab69	-0.052409563
239	0x3c574ac2	0.013140382
240	0xbce66e89	-0.02812888
241	0xbd29d501	-0.041462902
242	0xbd90be78	-0.07067579
243	0xbd604f6e	-0.05476325
244	0x3dc5be4a	0.096554354
245	0xbcb8a486	-0.022539388
246	0xbdd4d725	-0.10392598
247	0x3d190195	0.037355024
248	0xbdeec99a	-0.11659546
249	0xbc89f060	-0.016838253
250	0x3de184fc	0.11011693
251	0xbdbd253b	-0.09235617
252	0xbdde1083	-0.10842993
253	0xba3a97bd	-0.00071179477
254	0xbdc10da7	-0.09426432
255	0xbd0e1013	-0.0346833

block_1.2.weight f4 [8]
0	0x3f80acf3	1.005278
1	0x3f7e826e	0.9941777
2	0x3f7d0e1f	0.9884967
3	0x3f7f8e21	0.99826247
4	0x3f813c0c	1.009645
5	0x3f80d9bf	1.0066451
6	0x3f80bf67	1.0058411
7	0x3f8065b1	1.0031034

block_1.2.bias f4 [8]
0	0xbc66f0d4	-0.014095504
1	0x3bcdc566	0.0062796352
2	0xb9d534c7	-0.00040665848
3	0x3b0a61fa	0.0021115527
4	0x3b261616	0.0025342754
5	0x3c9662c0	0.018357635
6	0xbbd0222c	-0.00635173
7	0x3bd6b61a	0.00655247

block_1.2.running_mean f4 [8]
0	0x362aa33f	2.5426996e-06
1	0x3579b284	9.3019503e-07
2	0xb5c2c6f6	-1.4512032e-06
3	0x35e47eba	1.7024206e-06
4	0xb61cc53e	-2.3360622e-06
5	0xb5cd4f2a	-1.529673e-06
6	0xb582fdf2	-9.759663e-07
7	0x360cf147	2.1002068e-06

block_1.2.running_var f4 [8]
0	0x3a8b5062	0.0010628814
1	0x3a8b34ae	0.0010620558
2	0x3a8b359b	0.0010620834
3	0x3a8b48ac	0.0010626516
4	0x3a8b6a99	0.0010636627
5	0x3a8b47f5	0.0010626303
6	0x3a8b6960	0.0010636263
7	0x3a8b66d6	0.0010635506

block_2.0.weight f4 [32, 8, 1, 64]
0	0xbc35af58	-0.0110891685
1	0x3c8f0ab8	0.017461166
2	0x3d1d16c4	0.03835179
3	0x3b7d6212	0.003866319
4	0x3c728178	0.014801376
5	0xbbd6bd6d	-0.006553343
6	0x3b465908	0.003026547
7	0xbd0ca5d2	-0.034337826
8	0x3d1f33e2	0.03886784
9	0xbd36d851	-0.04463989
10	0x3c3b1ba1	0.011420161
11	0xbc66c21f	-0.014084368
12	0xbce8b93e	-0.028408643
13	0xbc98e0e6	-0.018661927
14	0x3cd5b77b	0.026088467
15	0x3bce76ff	0.0063008065
16	0x3c759d4b	0.014991115
17	0xbd2f3719	-0.042777155
18	0x3d0225a9	0.031774197
19	0x3d1ebe70	0.038755834
20	0x3c3303a2	0.010926159
21	0x3c57fc82	0.013182761
22	0x3cec279f	0.028827487
23	0xbca23bfd	-0.019803995
24	0x3c48156a	0.012212137
25	0xbcc99310	-0.024606258
26	0xbcc56684	-0.024096735
27	0xbd2aed73	-0.041730355
28	0xbc8d0761	-0.017215433
29	0xbd33bf2a	-0.04388348
30	0xbca23575	-0.01980088
31	0x3bd40aa7	0.0064709964
32	0xbc9f8bd8	-0.019475862
33	0xbc42b246	-0.011883324
34	0x3d1d3af9	0.03838632
35	0xbcbf56b5	-0.023356775
36	0x3d00f7d6	0.031486355
37	0xbc6bce45	-0.01439244
38	0xbccb62f9	-0.024827467
39	0xbd27ceaf	-0.040968593
40	0xbb9fb0cc	-0.0048733708
41	0xbcb51f4b	-0.022109648
42	0xbc808263	-0.015687173
43	0xbc0c2549	-0.008553811
44	0xbd390891	-0.045174185
45	0xbd3b09dc	-0.0456637
46	0x3a25821b	0.0006313638
47	0xbd330f90	-0.043716013
48	0xbd396e84	-0.04527141
49	0xbd04c51c	-0.03241454
50	0x3b497a65	0.003074312
51	0x3c86522c	0.016396604
52	0xbcde365a	-0.027125526
53	0x3d1a587e	0.03768205
54	0x3cb94f91	0.022620948
55	0xbd0cf5ea	-0.03441421
56	0xbd402ba0	-0.046916604
57	0x3c45ccca	0.012072751
58	0xbcce5016	-0.025184672
59	0x3c0cb8bb	0.008588965
60	0xbc9ce593	-0.019152438
61	0xbd578786	-0.05261948
62	0xbcfb5a1e	-0.03068262
63	0xbd411f0c	-0.04714875
64	0xbd0647a3	-0.03278316
65	0xbcc51544	-0.024057992
66	0xbcc18751	-0.023624094
67	0x3d03e1bc	0.0321977
68	0xbd299c7a	-0.041408993
69	0x3d25563f	0.040365454
70	0x3d3afeaf	0.04565304
71	0xbca2ce00	-0.01987362
72	0xbd274f09	-0.04084686
73	0xbc029c7e	-0.007971881
74	0xbccb93c7	-0.02485074
75	0x3d28e5b3	0.041234683
76	0xbd0d376c	-0.034476683
77	0xbb9e28a8	-0.004826624
78	0x3a29c913	0.0006476801
79	0x3c09452d	0.008378309
80	0xbc3c354d	-0.011487317
81	0x3d0d3db8	0.034482688
82	0x3d099685	0.033590812
83	0xbc9822d3	-0.018571293
84	0x3cf26465	0.029588887
85	0xbd08f581	-0.033437256
86	0x3c14cf38	0.009082608
87	0xbc162ed1	-0.009166435
88	0xbd430d73	-0.047620248
89	0x3c0dcb89	0.008654484
90	0xbd021a44	-0.03176333
91	0x3cab0dbb	0.02088057
92	0x3c8546b3	0.016269064
93	0xbba7bb45	-0.00511876
94	0x3cc8e919	0.024525212
95	0xbcb01373	-0.02149365
96	0xbcf71a85	-0.030164013
97	0xbd411d53	-0.047147106
98	0xbc27710a	-0.010219822
99	0xbd1a3640	-0.037649393
100	0xbaab0494	-0.0013047629
101	0x3d06d742	0.03292013
102	0xbd3e54da	-0.04646764
103	0xbbdc6c6e	-0.006726793
104	0x3c9bbf77	0.019012196
105	0x3bfa5f37	0.007640745
106	0x3c880bff	0.016607283
107	0x3c6c98e0	0.014440745
108	0x3d0869a2	0.033303864
109	0x3c91eab5	0.017812112
110	0xbc3bab57	-0.011454425
111	0xbd16712d	-0.036729027
112	0xbd09f855	-0.033684094
113	0x3d0be2d9	0.034151886
114	0xbcd1e156	-0.025620144
115	0xbb72fd19	-0.0037077127
116	0x3ce8f725	0.02843816
117	0xbc87e72f	-0.01658973
118	0xbcc2817a	-0.02374338
119	0xbd2d0ff6	-0.04225155
120	0x3d2e1c99	0.04250774
121	0xbd20e630	-0.039282024
122	0xba98367d	-0.0011612918
123	0xbd2c8437	-0.042118277
124	0x3bfc0fbf	0.007692307
125	0x3c67103d	0.014102993
126	0x3cf1ab02	0.029500488
127	0x3c3eeb7a	0.011652822
128	0x3c8c8a28	0.017155722
129	0x3c727ce3	0.014800283
130	0x3d2e4f78	0.042556256
131	0x3c1a2325	0.009407793
132	0xbd1da75c	-0.038489684
133	0xbc3ab5c7	-0.011395878
134	0xbc6aec65	-0.014338587
135	0xbca87ea4	-0.0205682
136	0x3d2e3b37	0.04253694
137	0xbc8a1e71	-0.016860219
138	0xbb60b6c4	-0.0034288624
139	0xbb46fad0	-0.0030361898
140	0x3cca4af0	0.024693936
141	0xbd2ac400	-0.041690826
142	0x3d0401be	0.032228224
143	0x3be8e875	0.007107789
144	0xbbef1ede	-0.007297381
145	0x3d0a00e4	0.033692256
146	0x3cbbf029	0.022941666
147	0xbd17e538	-0.037083834
148	0x3c16626b	0.009178738
149	0xbc28a12f	-0.010292335
150	0xbc8b1b49	-0.016980784
151	0x3bd69a8f	0.0065491865
152	0x3c032ef1	0.008006797
153	0xbc42da2a	-0.011892835
154	0x3c5032c0	0.012707412
155	0x3cf9f20a	0.030510921
156	0x3bea9fb4	0.0071601514
157	0xbd242a0a	-0.040079154
158	0xbc721145	-0.014774625
159	0x3cd81d20	0.026381075
160	0xbbb86ed4	-0.005628446
161	0xbc9eb5ec	-0.019373856
162	0x3ccee552	0.025255833
163	0x3cff7d8b	0.031187793
164	0xbce4f3d7	-0.027948303
165	0x3ca50730	0.020145029
166	0x3cd904e9	0.0264916
167	0x3be9edf3	0.0071389615
168	0xbd1a4512	-0.037663527
169	0xbbeb7771	-0.0071858694
170	0x3ceecc93	0.029150283
171	0xbce6e60d	-0.028185869
172	0xbc7599e5	-0.014990305
173	0xbc5613e1	-0.013066263
174	0x3d123b85	0.035701293
175	0xbcf8fb14	-0.03039316
176	0x3ccceea8	0.025016144
177	0x3c81232d	0.015763843
178	0x3cc388ab	0.02386888
179	0xbc4185c7	-0.01181168
180	0x3d5587a7	0.05213132
181	0x3ce29501	0.027658941
182	0x3d4b46b0	0.04962796
183	0xbcff0d52	-0.031134281
184	0x3d2bde26	0.041959904
185	0x3d36200b	0.044464152
186	0x3d3b1eff	0.045683857
187	0xbcf3cb4f	-0.029760031
188	0x3d067fb5	0.032836635
189	0xbb9b0502	-0.0047308216
190	0x3c83593d	0.016033763
191	0x3cfa0eba	0.0305246
192	0xbcbf3783	-0.0233419
193	0x3aeae52a	0.0017921079
194	0xbd0c6ae3	-0.034281623
195	0xbcb82a17	-0.022481008
196	0x3cdedeb8	0.02720581
197	0xbce72f3e	-0.028220769
198	0x3d047022	0.0323335
199	0x3c279329	0.010227957
200	0x3ccdc157	0.025116606
201	0xbd53983f	-0.051658865
202	0x3c5b91d1	0.013401465
203	0xbd52be81	-0.05145121
204	0xbafb6a9a	-0.001918155
205	0xbccac22b	-0.02475079
206	0xbd45def4	-0.048308328
207	0x3ac9a25a	0.0015383468
208	0xbc85a42a	-0.016313631
209	0xbb34aba7	-0.0027568133
210	0xbd2040b0	-0.03912419
211	0x3ce30aa5	0.027715037
212	0x3c478c4a	0.012179444
213	0x3c975859	0.018474745
214	0xbca41108	-0.020027652
215	0xbd1a63a1	-0.03769267
216	0xbd2b91f0	-0.041887224
217	0xbb9c88ab	-0.0047770343
218	0x3d1b5bfd	0.037929524
219	0x3be0e738	0.006863501
220	0x3cd435b2	0.02590451
221	0x3d27485b	0.040840488
222	0xbca84d7c	-0.02054476
223	0x3b9c668c	0.0047729667
224	0x3d1fda70	0.039026678
225	0x3d1d338a	0.03837923
226	0xbd074f69	-0.033034716
227	0xbd05ede9	-0.032697592
228	0xbcb1fcb7	-0.02172695
229	0x3d1620bf	0.036652323
230	0xbcefd374	-0.029275633
231	0xbadb5e60	-0.00167365
232	0xbd19733c	-0.03746341
233	0xbba03161	-0.004888699
234	0x3d28ea34	0.04123898
235	0xbcb9c79f	-0.022678195
236	0xbd374997	-0.044747915
237	0x3b6837b6	0.0035433597
238	0x3ca526d9	0.020160126
239	0x3ced5fb8	0.028976306
240	0xbcb38633	-0.021914577
241	0x3d031887	0.032005813
242	0xbca5a6e4	-0.020221181
243	0xbc445573	-0.011983263
244	0x3c27040d	0.010193837
245	0xbcd381a3	-0.025818652
246	0x3c78e3e9	0.015191057
247	0xbcce292b	-0.025166115
248	0xbd0bac7c	-0.03410004
249	0x3ce471c5	0.02788628
250	0xbc18dbfe	-0.009329794
251	0x3c90aa9f	0.017659483
252	0xbc83c7ac	-0.016086422
253	0xbd02c115	-0.03192242
254	0xbbf70881	-0.0075388555
255	0xbd04a1b8	-0.03238079

block_2.1.weight f4 [32]
0	0x3f7e8dd5	0.9943517
1	0x3f7e85f9	0.99423176
2	0x3f8085ac	1.0040793
3	0x3f7db73b	0.9910771
4	0x3f7d13fa	0.98858607
5	0x3f80d129	1.0063831
6	0x3f807dc6	1.0038383
7	0x3f80071e	1.0002172
8	0x3f802863	1.0012325
9	0x3f80b8ba	1.0056374
10	0x3f801d72	1.0008986
11	0x3f812485	1.008927
12	0x3f7f1a9b	0.9964997
13	0x3f7e622c	0.9936855
14	0x3f7f1340	0.9963875
15	0x3f8105a0	1.0079842
16	0x3f7eec42	0.9957925
17	0x3f801711	1.0007039
18	0x3f7fcf5f	0.999258
19	0x3f7c9589	0.9866567
20	0x3f7cd821	0.98767287
21	0x3f7fbf40	0.999012
22	0x3f802071	1.00099
23	0x3f7fd23c	0.9993017
24	0x3f7eeee7	0.99583286
25	0x3f80ab68	1.0052309
26	0x3f80d504	1.0065007
27	0x3f807ddd	1.003841
28	0x3f80bc84	1.005753
29	0x3f80c9ff	1.0061644
30	0x3f810fab	1.0082906
31	0x3f80298b	1.0012678

block_2.1.bias f4 [32]
0	0xbbed4591	-0.007240959
1	0xbbb429f8	-0.005498167
2	0xb953e288	-0.00020206918
3	0x3bcd7e25	0.006271141
4	0x3b2887b1	0.0025715644
5	0x3b1021db	0.0021992836
6	0x3adc5945	0.0016811272
7	0x3b21a755	0.0024666388
8	0x3bd34f83	0.0064486875
9	0xbaac400f	-0.001314165
10	0xbb018aa0	-0.0019766465
11	0xbb9a6157	-0.004711311
12	0x3b2ea2be	0.0026647295
13	0x3bc57d46	0.0060268966
14	0x3b3dc87f	0.0028958616
15	0xb9b32498	-0.00034168805
16	0xbb0b029a	-0.0021211267
17	0xbb770e12	-0.0037697596
18	0x3b95a2e5	0.0045665377
19	0x3a317fc2	0.00067710516
20	0xbb779fcd	-0.0037784458
21	0x3a992aa2	0.0011685679
22	0xbc24eb38	-0.010065846
23	0xba2b7b9a	-0.00065415504
24	0xb9b5ef88	-0.00034701475
25	0x3b3f9c28	0.0029237363
26	0xbbae6b86	-0.0053228764
27	0x3bacf2cf	0.0052779685
28	0xbbb97892	-0.005660125
29	0x3c391d87	0.011298544
30	0xbb8310b4	-0.003999794
31	0x3a9f0be4	0.0012134281

block_2.1.running_mean f4 [32]
0	0x3c5fc780	0.013658404
1	0x3b609bf4	0.0034272643
2	0xbb40982d	-0.0029387579
3	0xbc0dca18	-0.00865414
4	0xbbf53b02	-0.007483841
5	0x3c542bb9	0.012949877
6	0xbb8c8728	-0.004288573
7	0x3c5bc055	0.013412555
8	0xba330192	-0.0006828542
9	0x394cf728	0.00019547029
10	0xbb2ed81f	-0.0026679111
11	0x3c272a88	0.010203011
12	0xbc00800a	-0.007843027
13	0x3c2763b7	0.010216645
14	0xbc3c717e	-0.011501668
15	0x39ee796a	0.00045485358
16	0xbc45f104	-0.012081388
17	0x3b56248f	0.00326756
18	0x3bc95097	0.0061436403
19	0x3c530787	0.012880213
20	0xbb9cc715	-0.0047844746
21	0x3c36699a	0.011133576
22	0xbc3e3474	-0.0116091855
23	0xbb74c667	-0.0037349702
24	0x3b85e32d	0.0040859194
25	0x3c286131	0.0102770785
26	0xbc81a681	-0.015826466
27	0x3c3174cc	0.010831069
28	0xbb928293	-0.004471132
29	0xbb8738bf	-0.0041266377
30	0xba10ea12	-0.0005528043
31	0x3bc54f7f	0.0060214396

block_2.1.running_var f4 [32]
0	0x3ed5ea5d	0.41780367
1	0x3e3eb265	0.1862274
2	0x3ed36011	0.4128423
3	0x3ee05769	0.4381669
4	0x3ec712ef	0.38881633
5	0x3f15fb47	0.58586544
6	0x3e0827d0	0.13296437
7	0x3ec6ea99	0.3885086
8	0x3e92b47f	0.28653333
9	0x3ea0828b	0.31349596
10	0x3e6bf11c	0.23041195
11	0x3f022533	0.5083801
12	0x3ebff3b5	0.3749062
13	0x3f079703	0.529648
14	0x3e996844	0.2996236
15	0x3f0c8378	0.54888105
16	0x3e311c51	0.17295958
17	0x3e5f49aa	0.21805444
18	0x3e851795	0.25994554
19	0x3ea89095	0.32922807
20	0x3ec33c61	0.38132003
21	0x3eed64ab	0.46365866
22	0x3e996c84	0.29965603
23	0x3e7beafd	0.2460136
24	0x3ed6a68f	0.4192395
25	0x3f00fc1d	0.50384694
26	0x3eda0204	0.42579663
27	0x3e83b0a3	0.257207
28	0x3f19a91b	0.6002366
29	0x3f0b393f	0.54384226
30	0x3ed62fed	0.4183344
31	0x3ef6cc2e	0.48202652

block_3.0.parametrizations.weight.original f4 [64, 1, 129, 1]
0	0x3c52e88b	0.012872825
1	0x3b2acc3e	0.002606168
2	0xbcc03e33	-0.023467159
3	0x3c9c0210	0.019043952
4	0x3b4c0c6f	0.003113534
5	0xbc65807b	-0.014007683
6	0x3c868f5c	0.016425781
7	0xb9b8010f	-0.00035096004
8	0xbc7063c8	-0.014672227
9	0xbc9a61ff	-0.018845556
10	0xbce34e76	-0.027747374
11	0xbb260dfa	-0.002533792
12	0x3cc3fe0b	0.023924848
13	0x3ba611ca	0.0050680386
14	0x3c29d3a1	0.010365398
15	0xb9dc1a42	-0.00041981234
16	0x3c101ccb	0.008795927
17	0x3cbb2bb5	0.02284799
18	0x3c48a915	0.012247344
19	0x3cb56a53	0.022145426
20	0x3c8096d2	0.015696917
21	0x3c226881	0.009912611
22	0xbcb8c688	-0.022555605
23	0xbafe70a5	-0.0019412233
24	0x3badef69	0.005308081
25	0xbc7bff6a	-0.01538072
26	0xbcb58fca	-0.02216329
27	0x3cde71fe	0.027153965
28	0xbc95d39f	-0.018289385
29	0xbce9fd51	-0.028563173
30	0x3c0fa7d5	0.008768042
31	0x3c4223fa	0.011849398
32	0xbb161a4c	-0.0022903858
33	0x3cc6d27f	0.024270294
34	0x3c957b0a	0.018247146
35	0xbc9f4eb8	-0.019446716
36	0xbc78f69c	-0.015195515
37	0xbc98227d	-0.018571133
38	0x3ca740e0	0.020416677
39	0xbbcec200	-0.0063097477
40	0x3beccc9a	0.007226539
41	0x3c32aa63	0.010904881
42	0xb9c2eed7	-0.00037180513
43	0xbca2d647	-0.019877566
44	0xbc98138e	-0.018564012
45	0x3c9fcb63	0.019506162
46	0x3c65913a	0.0140116755
47	0xb9248ed7	-0.00015693471
48	0x3c3f3f5a	0.011672819
49	0xbc1a7e3c	-0.009429511
50	0x3c3f54fe	0.011677979
51	0x3c845d75	0.016157845
52	0xbc976109	-0.018478887
53	0x3b697466	0.0035622357
54	0xbcbbcc43	-0.022924548
55	0x3c939763	0.018016523
56	0x3c7e6b55	0.01552852
57	0x3c9d5e94	0.019210137
58	0xbc9fab9a	-0.019491006
59	0xba2c39ea	-0.0006569909
60	0xbb2f26c8	-0.0026725996
61	0x3c158852	0.00912674
62	0xbc26e4f3	-0.010186422
63	0xbc73a39c	-0.0148705505
64	0x3d03697c	0.03208302
65	0xbbe36e41	-0.0069406335
66	0x3c19babe	0.009382902
67	0xbba9fcbb	-0.0051875985
68	0x3c4b4b8a	0.012408147
69	0xbc616e50	-0.013759211
70	0x3cf2f9d7	0.029660149
71	0xba1612da	-0.0005724855
72	0x3b1e39df	0.002414338
73	0x3cb54f6c	0.022132598
74	0x3c6fd415	0.014637967
75	0x3cb0373e	0.021510717
76	0x3c8d91e8	0.017281488
77	0xbcad130b	-0.021127244
78	0x3c822b89	0.0158899
79	0x3c99975a	0.018748928
80	0x38e82eb4	0.00011071321
81	0x3c8052a1	0.0156644
82	0x3c87acfd	0.01656198
83	0xb99bb3a5	-0.0002969775
84	0x3cd1458a	0.025545854
85	0xbc192194	-0.009346385
86	0xbcdeeb19	-0.027211713
87	0xbc935271	-0.017983647
88	0x3bca3b8c	0.0061716493
89	0xbcaa209f	-0.020767508
90	0x3ca39e7e	0.019973036
91	0x3c9bbd5c	0.019011192
92	0xbce8d914	-0.028423823
93	0x3c49c9cb	0.012316178
94	0xbcdbd0f9	-0.026833044
95	0x3c2b8cae	0.010470552
96	0xbc5435a2	-0.01295224
97	0xbb84b294	-0.0040496085
98	0xbc5c7c54	-0.0134573765
99	0xb852ed15	-5.02887e-05
100	0xbcb0ae3f	-0.021567462
101	0x3c4338b6	0.011915376
102	0xbcbde57b	-0.023180714
103	0x3a60d621	0.00085768296
104	0x3c8bfb5c	0.01708763
105	0xbbf5ccd4	-0.007501224
106	0xbbc64e20	-0.0060517937
107	0x3af02d7d	0.0018324103
108	0x3c2f1159	0.010685288
109	0x3a9c1d79	0.0011910639
110	0x3c8f2216	0.017472308
111	0xbcc223bd	-0.023698682
112	0xbd18fba9	-0.037349377
113	0xbcb5728b	-0.022149345
114	0xbd0014fc	-0.031270012
115	0x3c81496f	0.015782086
116	0x3c86df27	0.01646383
117	0xbc26e4d0	-0.010186389
118	0x3d0780ef	0.033081945
119	0xbcce27a7	-0.025165392
120	0x3d0f845f	0.03503835
121	0x393ca9fd	0.00017992403
122	0x3b8119b6	0.0039398326
123	0x3c1225a6	0.008920109
124	0xba7d14a2	-0.00096542586
125	0x38bc268d	8.971719e-05
126	0x3c80eaab	0.015736898
127	0x3c2f6674	0.010705579
128	0x3cd57113	0.026054895
129	0x3c03df6e	0.008048875
130	0xbc74917b	-0.014927263
131	0x3c365023	0.0111275045
132	0x3c9ccedf	0.019141613
133	0xbbc8dab8	-0.006129589
134	0x3c56143c	0.013066348
135	0x3be2b560	0.0069185942
136	0x3c2989b7	0.010347775
137	0x3c27e154	0.0102465935
138	0x3ce9d3a3	0.028543299
139	0x3c30e5aa	0.010796944
140	0x3c2a85ae	0.010407848
141	0xbbaa59a9	-0.0051986766
142	0x3d016615	0.031591494
143	0x3d0618af	0.032738384
144	0xbc7024b6	-0.01465719
145	0x3c060119	0.008178973
146	0xba556388	-0.00081401365
147	0x399c97c5	0.00029867716
148	0xbc13e07c	-0.009025689
149	0x3d005dd6	0.03133949
150	0x3c9eab77	0.01936887
151	0xbb22ac50	-0.0024821945
152	0xbb312022	-0.002702721
153	0xbc25e799	-0.010126018
154	0xbc82c370	-0.015962332
155	0x3c73031a	0.014832282
156	0x3c1fe804	0.009759907
157	0xbc848381	-0.016175987
158	0xbcb405bd	-0.021975392
159	0xbc51d5d0	-0.0128073245
160	0x3c96bb56	0.018399876
161	0x3caecf6f	0.021339146
162	0x3ca18ab8	0.019719467
163	0x3b2eae1e	0.0026654075
164	0xbc41152d	-0.011784834
165	0x3c44c6e5	0.012010311
166	0x3c2de86d	0.010614497
167	0x3cc3f0fe	0.023918625
168	0x3c9297a4	0.017894574
169	0x3d05a4fc	0.032628044
170	0x3cd4be9a	0.025969792
171	0x3c9bbab3	0.019009924
172	0x3d000210	0.031251967
173	0x3a412b14	0.0007368785
174	0x3bca2e26	0.006170052
175	0xbc1e8c98	-0.009677075
176	0x3c1088c4	0.00882167
177	0xbad82349	-0.0016490008
178	0xbc96a0d0	-0.018387228
179	0xbc8b27e9	-0.016986804
180	0xbcc79f13	-0.024367845
181	0xbc17e9ca	-0.009272048
182	0x3becda30	0.0072281584
183	0xba9a9667	-0.0011794091
184	0xbc3f23d2	-0.011666255
185	0x3cc375de	0.023859914
186	0x3cc1a3ba	0.023637641
187	0x39c50eb4	0.00037585723
188	0x3bb3b581	0.0054842834
189	0xbc7d307f	-0.015453457
190	0xbc9373bd	-0.017999524
191	0x3d19d4d4	0.037556484
192	0xbbdcd091	-0.0067387302
193	0x3bc6fd9a	0.006072712
194	0x3ce80a8f	0.028325347
195	0xbcc893ae	-0.024484482
196	0x3cc9a192	0.024613176
197	0x3ce2042e	0.027589884
198	0xba52957a	-0.0008033138
199	0xbc92eb4a	-0.01793446
200	0x3c359c8f	0.01108469
201	0xbc4c1740	-0.012456715
202	0x3cd4dc0f	0.025983838
203	0xbc9ded3e	-0.019278165
204	0xbcab18e4	-0.020885892
205	0x3bdf200f	0.0068092416
206	0xbd01766b	-0.031607073
207	0xbce17c25	-0.027525017
208	0x3ca36790	0.019946843
209	0x3cc33c47	0.023832453
210	0xba47bfd9	-0.0007619835
211	0x3cb55ea1	0.02213985
212	0x3c1c0b42	0.009524168
213	0xbd085c4d	-0.03329115
214	0x3babc71a	0.0052422406
215	0xbbfcb37d	-0.0077118264
216	0x3c967ef9	0.018371092
217	0x3c680e3b	0.014163549
218	0x3bafb89e	0.0053625843
219	0x3c9e54fa	0.01932763
220	0x3b2f2444	0.0026724497
221	0xbc8f07b7	-0.017459733
222	0xbc83ee5d	-0.016104871
223	0x3cb19202	0.021676067
224	0xbb1b9070	-0.0023737215
225	0xbc39b3b9	-0.011334353
226	0xbc5608a3	-0.013063583
227	0x3c9684c2	0.01837385
228	0xb90b21e0	-0.00013268692
229	0x3b93f1e6	0.0045149205
230	0xbc780fb4	-0.015140463
231	0x3acdf628	0.0015713619
232	0xbaa78e2b	-0.0012783458
233	0xbc88b47a	-0.01668762
234	0x3c951a2c	0.018200956
235	0x3bfd82bb	0.0077365316
236	0xbcb8389c	-0.022487931
237	0xbb824dcc	-0.0039765593
238	0x3cb2276b	0.021747312
239	0x3cf5fe49	0.03002848
240	0x3cd32e46	0.0257789
241	0x3cbf1f51	0.023330363
242	0x3c413b31	0.0117938975
243	0x3c452d02	0.0120346565
244	0xbbdbc4eb	-0.006706824
245	0x3cd3bd0b	0.025846979
246	0x3c6e5c2a	0.014548341
247	0x3ce50a19	0.027958917
248	0x3a09b914	0.0005253714
249	0xbc3b7c1d	-0.011443165
250	0xbc3f7478	-0.011685483
251	0x3c4cfe2f	0.012511774
252	0x3b70e737	0.0036758909
253	0x38da8356	0.00010419513
254	0x3c5c2e30	0.013438746
255	0xbcba0955	-0.022709528

block_3.1.weight f4 [64]
0	0x3f7ffe1c	0.99997115
1	0x3f801c47	1.000863
2	0x3f7e3ce7	0.9931168
3	0x3f806650	1.0031223
4	0x3f804b0f	1.0022906
5	0x3f80445f	1.0020865
6	0x3f7e9924	0.99452424
7	0x3f7b27df	0.98107713
8	0x3f7ce935	0.98793346
9	0x3f7ef1ab	0.99587506
10	0x3f8002f2	1.0000899
11	0x3f81b295	1.0132624
12	0x3f7f4ce1	0.9972668
13	0x3f7e836b	0.9941928
14	0x3f7da171	0.99074465
15	0x3f807954	1.0037026
16	0x3f7e3cc2	0.9931146
17	0x3f810f3f	1.0082778
18	0x3f80e030	1.0068417
19	0x3f8033a5	1.0015761
20	0x3f7f8eb6	0.99827135
21	0x3f806430	1.0030575
22	0x3f80bd47	1.0057763
23	0x3f80f407	1.0074471
24	0x3f80a7f6	1.0051258
25	0x3f7df67a	0.9920422
26	0x3f7e7d2c	0.9940975
27	0x3f7d7cca	0.9901854
28	0x3f7eed6c	0.9958103
29	0x3f80d23e	1.0064161
30	0x3f80ffa9	1.0078021
31	0x3f81b5e4	1.0133634
32	0x3f80eae0	1.0071678
33	0x3f7e1dc3	0.9926416
34	0x3f824e86	1.0180213
35	0x3f804c90	1.0023365
36	0x3f7ebdd2	0.9950839
37	0x3f7f8cc2	0.99824154
38	0x3f7cb40e	0.9871224
39	0x3f7e5044	0.99341226
40	0x3f7d5a29	0.989657
41	0x3f7e7c1d	0.9940813
42	0x3f8154c7	1.0103997
43	0x3f7fc3ed	0.99908334
44	0x3f809d2a	1.0047963
45	0x3f7dfdde	0.99215496
46	0x3f7abf3f	0.9794807
47	0x3f80b0ec	1.0053992
48	0x3f7f4e52	0.9972888
49	0x3f802e4a	1.0014126
50	0x3f80ac35	1.0052553
51	0x3f80d4a5	1.0064894
52	0x3f7ef758	0.99596167
53	0x3f81dcca	1.0145504
54	0x3f7e041f	0.9922504
55	0x3f811bba	1.0086586
56	0x3f81306c	1.0092902
57	0x3f80cc30	1.0062313
58	0x3f817a21	1.0115396
59	0x3f7e6489	0.99372154
60	0x3f80c186	1.0059059
61	0x3f80d429	1.0064746
62	0x3f8005a6	1.0001724
63	0x3f8179dd	1.0115315

block_3.1.bias f4 [64]
0	0xbb9eb197	-0.0048429477
1	0xb9e93f11	-0.0004448821
2	0xbbcf7e47	-0.006332192
3	0xbba52602	-0.0050399313
4	0xbad6631d	-0.0016356442
5	0xbbe85fd2	-0.007091501
6	0x3c7bf76d	0.015378815
7	0xbc13859a	-0.009004021
8	0xbb86e680	-0.004116833
9	0x3c0bfc07	0.008543975
10	0x3c0a402f	0.008438154
11	0xbc89dd17	-0.016829057
12	0x3c3c021b	0.011475111
13	0x3afa3d54	0.0019091764
14	0x3c2b6564	0.010461185
15	0x3c6fef5a	0.014644468
16	0x3c244280	0.01002562
17	0x388be644	6.670927e-05
18	0x3b58d23b	0.0033084291
19	0x3c0367f5	0.008020391
20	0x3c4958d4	0.012289245
21	0xbb9be4e5	-0.004757511
22	0xbc12db12	-0.008963363
23	0x3bc2cc1e	0.005944743
24	0xbc091712	-0.008367317
25	0x3baa3f25	0.0051955157
26	0x3c278945	0.010225599
27	0xb9f8e839	-0.00047475265
28	0xbc154fdb	-0.009113277
29	0xbc1bfec8	-0.009521194
30	0x3c9ae596	0.018908303
31	0xbc6151bf	-0.0137524
32	0x3c1143c7	0.008866257
33	0x3b3f3ffb	0.0029182422
34	0xbb7e2bcb	-0.0038783427
35	0x3b945460	0.00452666
36	0xbc09ca74	-0.008410085
37	0x3c39bc91	0.011336462
38	0x3ae47727	0.001743053
39	0xbb639280	-0.0034724772
40	0xbb206196	-0.0024472228
41	0x3bde9cb7	0.006793584
42	0x3c2bbf47	0.010482616
43	0xbc86efbd	-0.016471738
44	0x3c74cb7a	0.014941091
45	0x3b8ec109	0.0043565077
46	0xbb431856	-0.0029769144
47	0xba42d944	-0.0007432888
48	0x3c88a3a9	0.016679602
49	0x3c07490e	0.008257164
50	0x3be29f1b	0.0069159395
51	0x3c7d1428	0.0154467
52	0x3ba69025	0.0050831013
53	0x3c61e0d0	0.01378651
54	0xbc73aa89	-0.014872202
55	0xbc753c0b	-0.014967929
56	0x3b9202dc	0.0044559073
57	0x3c0a1265	0.008427237
58	0xbc33b430	-0.010968253
59	0xbc1a2896	-0.0094090905
60	0x3c7c4c72	0.015399085
61	0x3c15efc8	0.009151407
62	0x3c8b7e09	0.017027872
63	0xbb2e8491	-0.0026629309

block_3.1.running_mean f4 [64]
0	0xbbe088e2	-0.006852255
1	0x3b1a36dc	0.0023531234
2	0xba271ea1	-0.00063751085
3	0xbb5c86aa	-0.0033649602
4	0x3b5711c2	0.003281698
5	0xba403b5e	-0.0007333065
6	0xbad4b4b5	-0.0016228171
7	0x3b49640c	0.0030729799
8	0xba918ccc	-0.0011104583
9	0xba99c897	-0.0011732754
10	0x3b7cef55	0.0038594801
11	0xbb8e21a7	-0.0043375078
12	0x3a0a8c00	0.0005285144
13	0x3aaa3973	0.0012987092
14	0xbaa6be97	-0.0012721595
15	0x3b972a02	0.004613162
16	0xbc138589	-0.009004005
17	0xbb376efe	-0.002798974
18	0xb8c5b187	-9.426759e-05
19	0xba9e4ed3	-0.0012077935
20	0xbaf538ac	-0.0018708906
21	0x3a994e86	0.0011696375
22	0xbbf835a4	-0.007574754
23	0x3b9b64b6	0.0047422303
24	0x3bd7c315	0.006584535
25	0x3b66aaa7	0.0035196932
26	0xbb8ac63a	-0.004235056
27	0x3c175256	0.009235939
28	0xbafd30c8	-0.0019316906
29	0x394e31dd	0.00019664266
30	0x3b91ffd7	0.0044555473
31	0x3b98fd3e	0.0046688607
32	0x3b5d02d1	0.0033723603
33	0x3bc08ecd	0.005876398
34	0xbbb1824e	-0.005417145
35	0xba6e8d43	-0.0009100029
36	0x3b488df8	0.0030602198
37	0x3a7d1f83	0.00096558797
38	0x3c0e7217	0.008694193
39	0xbad40e3c	-0.0016178559
40	0xbb02e5ca	-0.001997339
41	0xbb9cf0d4	-0.004789451
42	0xba3d7ccc	-0.0007228374
43	0x3ae68b85	0.0017589187
44	0x3c04d38e	0.008107079
45	0xbc15b414	-0.009137172
46	0xba7d6b99	-0.00096672174
47	0xba894148	-0.0010471726
48	0xbb139e5e	-0.0022524814
49	0xb98b3af0	-0.00026556058
50	0xbb704cc0	-0.003666684
51	0x3b73a56c	0.0037177457
52	0x3b85105a	0.004060787
53	0xbb8180d6	-0.003952126
54	0x3a04ec38	0.00050706
55	0x3b7a7809	0.003821852
56	0x3b812638	0.0039413236
57	0x3a292b54	0.0006453295
58	0xbc1d010b	-0.009582768
59	0x3c1cfb51	0.009581403
60	0xb8d234e7	-0.00010023434
61	0x3b2dd80c	0.002652648
62	0x38f7f366	0.00011823214
63	0x3bff7d0c	0.007796889

block_3.1.running_var f4 [64]
0	0x3d7b55f8	0.061361283
1	0x3dda2edf	0.10653471
2	0x3d24da6f	0.040247377
3	0x3d060bcd	0.032726098
4	0x3e484f27	0.19561444
5	0x3de147f6	0.110000536
6	0x3e1b0e96	0.15142283
7	0x3d6f851a	0.058476545
8	0x3de7a8f4	0.11311522
9	0x3e69f7fa	0.22848502
10	0x3d97ffd0	0.07421839
11	0x3e9f0a4c	0.31062543
12	0x3d9a6559	0.07538862
13	0x3da872da	0.08225031
14	0x3da2d3e0	0.07950568
15	0x3dc9ecd5	0.09859625
16	0x3e2a9dc8	0.16661751
17	0x3d9f5d47	0.07781463
18	0x3e007f73	0.12548618
19	0x3de79404	0.113075286
20	0x3d7b54a3	0.061360013
21	0x3dd4b03c	0.103851765
22	0x3d58e005	0.052948017
23	0x3ce4b680	0.027919054
24	0x3dbff7b9	0.09373421
25	0x3d5e249a	0.054234125
26	0x3d9c0e32	0.07619895
27	0x3eaf853f	0.34281346
28	0x3dee2c1a	0.116295055
29	0x3e59dc9c	0.21275562
30	0x3e12ff5d	0.14355226
31	0x3d6bbf57	0.057555523
32	0x3d9394de	0.072061285
33	0x3d814e22	0.06313731
34	0x3d142653	0.03616936
35	0x3e16baa2	0.14719632
36	0x3d9bcd9a	0.07607575
37	0x3d3be852	0.045875855
38	0x3e0c3bb5	0.13694651
39	0x3e1a495f	0.15067051
40	0x3e431c61	0.19053794
41	0x3e1c4648	0.15261185
42	0x3dcd1c75	0.100151934
43	0x3e0fd3f3	0.14045696
44	0x3dfc7a06	0.123279616
45	0x3e7545d4	0.23952419
46	0x3e9a55ce	0.3014359
47	0x3e38d8e0	0.18051481
48	0x3e0c0193	0.13672476
49	0x3dfe3050	0.12411559
50	0x3e600200	0.21875763
51	0x3d0b03c6	0.033939146
52	0x3dd6e90a	0.104936674
53	0x3dea5373	0.11441698
54	0x3dcdf54c	0.10056552
55	0x3db56679	0.08857436
56	0x3dc9e551	0.09858192
57	0x3db8305e	0.089936
58	0x3e6d2b1f	0.2316098
59	0x3e9366f7	0.28789493
60	0x3d82b802	0.06382753
61	0x3e0f662e	0.14003822
62	0x3e382c7b	0.17985718
63	0x3d88401e	0.066528544

block_4.0.weight f4 [32, 64, 1, 16]
0	0x3c6682fa	0.014069313
1	0x3c801da8	0.015639141
2	0xbcb5bff7	-0.022186263
3	0xbb05e678	-0.002043156
4	0xbc696854	-0.014246065
5	0xba2613fa	-0.0006335374
6	0x3c8e1913	0.01734594
7	0xbb3cec21	-0.0028827267
8	0xbbe1a668	-0.0068862922
9	0x3bbeda74	0.0058243815
10	0x3d2fa91c	0.042885885
11	0x3c95c300	0.01828146
12	0xbc261928	-0.010137834
13	0x3c6e1946	0.014532393
14	0xbc584623	-0.013200316
15	0xbc2ca053	-0.010536271
16	0x3c2c68d1	0.010523037
17	0xbab7d002	-0.0014023783
18	0x3cff061e	0.031130847
19	0x3cdac1d5	0.026703754
20	0xbc62b5c0	-0.013837278
21	0x3c2708bf	0.010194956
22	0x3d0dfb58	0.03466353
23	0x3a8acd3d	0.001058973
24	0x3d1e7a20	0.038690686
25	0xbc82019e	-0.015869912
26	0xbce1dd43	-0.027571326
27	0x3bb29d90	0.005450912
28	0xbb72648f	-0.0036986207
29	0xbc8f78e9	-0.01751371
30	0xbc8fc571	-0.017550202
31	0x3c3e917d	0.011631367
32	0xbc682d65	-0.014170979
33	0xbbbd5050	-0.0057773963
34	0x3c11c732	0.0088975895
35	0x3b459776	0.0030150092
36	0x3cecc7ee	0.028903928
37	0x3afeee00	0.0019449592
38	0x3a1d37fa	0.0005997416
39	0xbcea1649	-0.02857508
40	0x3bd7347d	0.0065675364
41	0x3ca69e7a	0.02033924
42	0xbc842960	-0.01613301
43	0xb8e539f7	-0.00010930368
44	0x3c926ea6	0.017875027
45	0xbc689cce	-0.014197541
46	0xbc779ee7	-0.015113569
47	0x3bc3a638	0.0059707426
48	0x3c963f81	0.018340828
49	0xbc285bb9	-0.010275775
50	0x3c4ba6dc	0.012429919
51	0xbc53de04	-0.012931351
52	0x3cb5696e	0.022145
53	0x3cc17970	0.023617476
54	0xbc571486	-0.013127452
55	0x3d2a7adf	0.041621085
56	0x3cf737d2	0.030177984
57	0x3cb773c9	0.022394078
58	0xbc9ad06f	-0.018898217
59	0x3d0b89fe	0.034067146
60	0x3d0017c3	0.03127266
61	0x3c84b5e7	0.016200019
62	0xbc2d507d	-0.010578272
63	0xbc5d9190	-0.013523474
64	0x3cb38ff5	0.02191923
65	0x3bfa6768	0.0076417215
66	0x3c69a5a1	0.01426068
67	0xbc3437ef	-0.010999664
68	0x3c0ee24a	0.008720944
69	0xbba71268	-0.0050986297
70	0x3c81805e	0.01580828
71	0x3cc7ba82	0.024380926
72	0x3c1a4676	0.009416213
73	0x3cdd7af9	0.027036177
74	0x3c2b7584	0.01046503
75	0x39451df5	0.00018798544
76	0x3cc211a7	0.023690058
77	0xbbc69691	-0.0060604294
78	0xbbc8d128	-0.006128449
79	0xbcd045ef	-0.025423972
80	0x3a83548b	0.0010019703
81	0xbcc3379a	-0.023830224
82	0x3c2142b9	0.009842568
83	0xbc0f6923	-0.008753094
84	0x3c9df663	0.019282525
85	0x3c1693ed	0.009190542
86	0x3cfa1e38	0.030531988
87	0x3c808f50	0.015693337
88	0x3cb63135	0.02224026
89	0xbc5a0d3f	-0.013308822
90	0x3bb32a5f	0.0054676975
91	0x3caee2df	0.021348415
92	0xbb96b376	-0.00459903
93	0x3bfb8fba	0.0076770457
94	0xbcb2c89c	-0.021824174
95	0xbccacda7	-0.024756266
96	0xbcb4f99c	-0.02209168
97	0x3cc9e949	0.024647372
98	0xbc6b10e2	-0.014347287
99	0xbb5272a2	-0.0032111784
100	0x3c5611eb	0.013065795
101	0x3c954c5e	0.018224891
102	0x3cad600e	0.021163967
103	0x3d0bc00e	0.034118704
104	0xb8bb631e	-8.935317e-05
105	0x3cab71d8	0.020928308
106	0x3cac6d0a	0.021048088
107	0xbbc28750	-0.0059365407
108	0xbcacc93f	-0.021092055
109	0x3b8f8d72	0.0043808753
110	0xbb15df22	-0.0022868593
111	0x3d036e76	0.032087766
112	0xbc7e8da4	-0.015536699
113	0xbbaf3b34	-0.0053476337
114	0x3c3dff6e	0.011596544
115	0x3ca545f1	0.020174952
116	0xbc90dc94	-0.017683305
117	0xbc1baf98	-0.009502314
118	0xbba96a22	-0.0051701227
119	0xbcbd11ae	-0.02307972
120	0xbca6df22	-0.02037007
121	0xbc9bc4b1	-0.019014688
122	0x3c3908db	0.011293615
123	0xbb5057c4	-0.0031790594
124	0xbbbc1cf1	-0.005740755
125	0xbc8ac94c	-0.016941689
126	0xbb38bb48	-0.00281878
127	0xbccae6ce	-0.02476826
128	0xbc12492a	-0.0089285765
129	0x3b83201b	0.00400163
130	0x393db3c1	0.00018091408
131	0x3c2cb882	0.010542037
132	0xbc368e63	-0.011142346
133	0x3b80222c	0.0039103236
134	0xbc5433dc	-0.012951817
135	0xbb074f1d	-0.002064652
136	0x3cd4c470	0.025972575
137	0xbd0295c2	-0.0318811
138	0x3a65fca9	0.0008773306
139	0x3bc01158	0.0058614425
140	0xbc6139a6	-0.013746655
141	0xbc43547f	-0.011922001
142	0xbcfa6b06	-0.03056861
143	0x3a266476	0.00063473673
144	0x3a8a2ce9	0.0010541949
145	0xbc8f9d55	-0.017531076
146	0x3b6929be	0.0035577859
147	0xbc359174	-0.011082042
148	0x3ac7bf44	0.0015239497
149	0xbc46b272	-0.012127506
150	0x3cb2ada3	0.021811312
151	0x3c303154	0.010753948
152	0x3bf60a76	0.0075085713
153	0x3cd91fb5	0.026504377
154	0x3cff9d04	0.0312028
155	0xbcd4495b	-0.025913885
156	0xbb2c1b61	-0.0026261436
157	0x3c7c3ca6	0.015395319
158	0x3aeca52e	0.0018054598
159	0x3d098a63	0.03357924
160	0xb996991b	-0.00028724302
161	0xbcd843c7	-0.026399506
162	0x3b357541	0.0027688297
163	0x3bb499ba	0.0055114897
164	0xbc78fca7	-0.015196956
165	0x3c9ab905	0.018887052
166	0x3c1da50c	0.00962187
167	0xbc894452	-0.01675621
168	0xbc2e7997	-0.010649106
169	0xbd24c468	-0.04022637
170	0xbcc2a19b	-0.0237587
171	0x3ca6dc44	0.020368703
172	0xbcf54ea3	-0.029944723
173	0xba51671b	-0.0007988081
174	0xba172a68	-0.0005766512
175	0x3c33e08b	0.010978828
176	0x3b7c5795	0.0038504351
177	0xbcdf9fe3	-0.02729792
178	0x3b562bcb	0.0032679911
179	0x3cf1548d	0.029459262
180	0x3a9c7d9d	0.0011939291
181	0x3d0d4939	0.03449366
182	0x3d152dc9	0.036420617
183	0x3c3db06b	0.011577706
184	0x3d110c6b	0.035412233
185	0x3b4b4a4e	0.003101963
186	0x3c6433bb	0.013928349
187	0x3c92c2c0	0.01791513
188	0xbc9cda27	-0.019146992
189	0x3bb0e2c0	0.0053981245
190	0xbc200e17	-0.009768984
191	0x3c18d96a	0.009329179
192	0xbad6f219	-0.0016399055
193	0x3c8e214d	0.017349863
194	0x3d2ac8b9	0.04169533
195	0xbc7cd500	-0.0154316425
196	0x3d02a63a	0.031896807
197	0x3b8fe085	0.0043907785
198	0xbb4bf5c6	-0.0031121834
199	0x3b93da72	0.0045121247
200	0x3cc512c4	0.0240568
201	0xbcb2b9df	-0.021817146
202	0xbbcdb638	-0.0062778257
203	0xbcc12d63	-0.023581212
204	0x3cc554aa	0.024088223
205	0xbcaa6932	-0.020802114
206	0x3b4248e9	0.0029645509
207	0x3cf1280d	0.029438043
208	0xbc86b1c4	-0.016442187
209	0xbb9b0ad4	-0.0047315154
210	0x3ca68f54	0.020332016
211	0x3c37495d	0.011186925
212	0x3b87da27	0.004145879
213	0xbae009ea	-0.0017092798
214	0x3c6fdb02	0.014639618
215	0xbc9f1aba	-0.019421924
216	0x3b20e0fc	0.0024548164
217	0xbce0c67f	-0.0274384
218	0xbc0e8390	-0.008698359
219	0x3c8c0f6f	0.017097203
220	0xbc20b8dc	-0.009809699
221	0x3d1d4ea2	0.03840507
222	0x3c826234	0.015915968
223	0x3cef5960	0.029217422
224	0xbc7ac858	-0.015306555
225	0xbb77bc57	-0.0037801468
226	0xbd029452	-0.03187973
227	0x3c18a46d	0.009316546
228	0x3cf635a5	0.030054877
229	0x3c83883b	0.01605617
230	0xbcb04d87	-0.021521343
231	0xbc93d393	-0.018045222
232	0x3ca74cf0	0.020422429
233	0x3d1cacfd	0.038250912
234	0xbbe4a486	-0.0069776205
235	0x3d22c71d	0.03974067
236	0x3c718766	0.014741754
237	0x3c021513	0.007939595
238	0x3cdb68fc	0.026783459
239	0xbba7fd7c	-0.0051266532
240	0x3ce7fd1e	0.028318938
241	0x3c843aa1	0.016141238
242	0xbcde8de4	-0.027167268
243	0x3ac39cb8	0.0014924025
244	0x3b4cce48	0.0031250883
245	0x3ae5f3b5	0.0017543944
246	0xbcf9a08f	-0.030472068
247	0x3c89506d	0.016761983
248	0x3cb22ba5	0.021749327
249	0x3bb5306a	0.005529453
250	0x3c96dbf8	0.018415436
251	0xbbb37b91	-0.0054773767
252	0x3ca34275	0.01992915
253	0x3c435085	0.011921053
254	0x3c5210e0	0.012821406
255	0x3bdca400	0.0067334175

block_4.1.weight f4 [32]
0	0x3f8012f8	1.0005789
1	0x3f8130e7	1.0093049
2	0x3f823154	1.0171304
3	0x3f80114f	1.0005282
4	0x3f7e0a2d	0.99234277
5	0x3f8052e4	1.0025296
6	0x3f7e79de	0.99404705
7	0x3f7c2516	0.9849409
8	0x3f7e1fbb	0.99267167
9	0x3f7f3048	0.99683046
10	0x3f81c4e0	1.0138206
11	0x3f818981	1.0120088
12	0x3f7f7339	0.9978519
13	0x3f8107b2	1.0080473
14	0x3f800857	1.0002545
15	0x3f7e16a2	0.99253285
16	0x3f7ef587	0.99593395
17	0x3f80d992	1.0066397
18	0x3f7ff683	0.9998552
19	0x3f81ece2	1.0150416
20	0x3f809cf4	1.0047898
21	0x3f7df158	0.99196386
22	0x3f80f279	1.0073997
23	0x3f80850c	1.0040603
24	0x3f7f1a8a	0.9964987
25	0x3f824de7	1.0180024
26	0x3f7f81b9	0.99807316
27	0x3f7c30b3	0.9851181
28	0x3f7e72b7	0.9939379
29	0x3f7f4b4e	0.9972428
30	0x3f81a8eb	1.0129675
31	0x3f80059e	1.0001714

block_4.1.bias f4 [32]
0	0xbc5b2b3e	-0.013377009
1	0xbcee57f5	-0.029094676
2	0xbc87410e	-0.016510513
3	0x3c9c24f4	0.01906059
4	0x3b903996	0.004401396
5	0xbc3dc4bd	-0.011582551
6	0x3caa6a80	0.020802736
7	0x3c06e11b	0.00823238
8	0x3c013ddf	0.007888286
9	0x3a90d2b2	0.001104912
10	0x3b730d2e	0.0037086713
11	0x3c7f0d86	0.015567189
12	0x3c20e92e	0.009821219
13	0x3c8b8c3a	0.017034639
14	0xbc9c296c	-0.01906272
15	0xbb6e5d6f	-0.0036371609
16	0xbc9ab4fc	-0.018885128
17	0xbbc290d6	-0.005937676
18	0x3c492175	0.012276043
19	0xbc535f50	-0.012901142
20	0xbc8b621e	-0.01701456
21	0xbc48d9b6	-0.012258938
22	0xbc926ec4	-0.017875083
23	0x3c076791	0.008264438
24	0xbc6dae6a	-0.014506916
25	0xbc33eba7	-0.010981477
26	0x3c3348c8	0.010942645
27	0x3cafb9eb	0.021450957
28	0xbb8982c2	-0.0041964957
29	0x3ba185f3	0.004929298
30	0x3c760938	0.015016846
31	0x3bd547fa	0.0065088244

block_4.1.running_mean f4 [32]
0	0x3e7b65ea	0.24550596
1	0x3e8db4cd	0.27677003
2	0xbe835250	-0.25648737
3	0xbdb23e59	-0.08703298
4	0x3c79aaa4	0.015238438
5	0xbe13fbf6	-0.14451584
6	0x3e1a66d0	0.15078282
7	0x3e3888ca	0.18020931
8	0x3e522715	0.20522721
9	0x3e255e37	0.16149221
10	0xbe7627d5	-0.24038632
11	0xbe70bdce	-0.23509905
12	0x3d880fb6	0.066436216
13	0xbec1bfae	-0.37841552
14	0xbe56cf88	-0.20977604
15	0x3c6d86cf	0.014497473
16	0xbda42e14	-0.08016601
17	0xbe9c40c6	-0.30518168
18	0x3e513608	0.20430768
19	0xbd904bc3	-0.070457004
20	0x3e131ea7	0.14367162
21	0x3dd009f8	0.101581514
22	0xbc6e7183	-0.0145534305
23	0xbe8c6afa	-0.27425367
24	0xbdb661a2	-0.08905341
25	0xbe42d876	-0.19027886
26	0xbe70993a	-0.23495951
27	0xbd285ace	-0.041102223
28	0x3e0db544	0.13838679
29	0x3e7b383f	0.24533175
30	0xbe5c40ee	-0.21509144
31	0x3e794dc6	0.24346074

block_4.1.running_var f4 [32]
0	0x3fe03426	1.7515914
1	0x3ff744ac	1.9317832
2	0x3ff156a4	1.8854566
3	0x3f53f0e0	0.8278942
4	0x3f67850e	0.904374
5	0x3f70a8ca	0.9400755
6	0x3f565f15	0.83738834
7	0x3f840e94	1.0316949
8	0x3f98b63e	1.1930616
9	0x3f921ca5	1.1414992
10	0x3fd1f8d2	1.6404059
11	0x3fdf82cb	1.746179
12	0x3f4e3bc7	0.80559963
13	0x4047d8cd	3.1226075
14	0x3fb8fceb	1.4452184
15	0x3ed359fa	0.41279584
16	0x3f471ef3	0.777816
17	0x401c5d2d	2.443187
18	0x3fb06a67	1.3782471
19	0x3f04502b	0.51684827
20	0x3f825aa9	1.0183917
21	0x3f2bad8d	0.6706169
22	0x3f82bedf	1.0214499
23	0x400595e5	2.0872738
24	0x3f68eb9d	0.9098452
25	0x3fa018e8	1.2507601
26	0x3fff8cb4	1.9964814
27	0x3f0f0d0c	0.5587928
28	0x3f4927b6	0.7857622
29	0x3fd57672	1.6676772
30	0x3fabc4e3	1.341946
31	0x400658c1	2.099167

block_5.0.weight f4 [8, 32, 1, 16]
0	0xbc43086a	-0.011903862
1	0x3cfda788	0.030963674
2	0x3d4313a9	0.04762617
3	0xbc1817d6	-0.009283027
4	0xbcc1690a	-0.023609657
5	0xbca8ce65	-0.02060623
6	0x3d560f66	0.05226078
7	0x3d2ff7ba	0.04296086
8	0xbc817b24	-0.015805788
9	0x3c469946	0.012121504
10	0x3c70a885	0.014688616
11	0x3c7629b8	0.015024595
12	0x3bd47e39	0.0064847735
13	0x3d048ecb	0.03236274
14	0x3c2453f4	0.010029782
15	0x3d0c35c5	0.034230966
16	0x3cea4ab0	0.028600067
17	0x3d3f953f	0.04677319
18	0x3c5c14a8	0.013432659
19	0x3d1a9e2d	0.037748504
20	0x3cb2b860	0.021816432
21	0x39ea9316	0.00044741546
22	0xbcd70dbe	-0.02625167
23	0xbcaeb295	-0.021325389
24	0xbd08eb04	-0.033427253
25	0x3c660407	0.014039046
26	0x3d2f7a32	0.042841144
27	0x3cf734e5	0.03017659
28	0xbcf5cb01	-0.030004026
29	0x3d024db2	0.031812377
30	0x3c241ae0	0.010016173
31	0xbcc4736f	-0.023980824
32	0xbca3c617	-0.019991918
33	0x3bc07381	0.005873144
34	0xbce0c741	-0.027438762
35	0xbccc74f6	-0.024958115
36	0xbb972e57	-0.0046136784
37	0xbcb43833	-0.021999454
38	0xbcf600c6	-0.030029666
39	0xbd5c9e5b	-0.053861957
40	0xbca9767c	-0.02068638
41	0x3d08980c	0.03334813
42	0x3cead9e9	0.02866836
43	0xbc155e4f	-0.009116723
44	0x3c62d8dc	0.013845649
45	0x3c20dcd5	0.009818275
46	0xbb293d01	-0.0025823715
47	0xbd619f8f	-0.055083808
48	0x3c17eb60	0.009272426
49	0x3d0beb62	0.034160025
50	0xbd0812c5	-0.033221025
51	0xbd1147c1	-0.03546882
52	0x3c3957ec	0.011312466
53	0x3bbbd935	0.00573268
54	0xbcb16ce1	-0.021658363
55	0xbd42cda8	-0.04755941
56	0x3cd6d450	0.026224285
57	0xbc87a42c	-0.016557775
58	0x3d0c5d42	0.034268625
59	0x3be017bd	0.0068387673
60	0xbd06ec73	-0.03294034
61	0xbd31bc8b	-0.0433927
62	0x3c76f8c7	0.015073962
63	0x3c8dcdb5	0.017310003
64	0x3a9cc412	0.0011960289
65	0xbd2c7761	-0.042106036
66	0xb9b866cc	-0.00035171804
67	0xbb988045	-0.004653963
68	0xbd0d14bd	-0.034443606
69	0x3cfe8822	0.031070773
70	0xbd12cc36	-0.035839282
71	0x3c90a185	0.017655144
72	0xbd111025	-0.035415787
73	0xbd08c4cc	-0.033390805
74	0x3cc14390	0.023591787
75	0xbcb1e001	-0.021713259
76	0x3d0eceb4	0.034865096
77	0xbcb28587	-0.021792186
78	0x3d07ea5b	0.033182483
79	0x3c61e8e2	0.013788434
80	0xbcf4ea80	-0.029896975
81	0xbd3a8759	-0.045539234
82	0x3c7710ff	0.015079736
83	0xbd21a9ce	-0.03946858
84	0x3c95bb83	0.01827789
85	0xbd104bbc	-0.035228476
86	0x3ca77d6a	0.020445544
87	0xbd46103c	-0.048355326
88	0xbcf53779	-0.029933678
89	0xbd374e66	-0.0447525
90	0x3cc05412	0.023477588
91	0xbc8a6e1e	-0.016898211
92	0x3cc9d01e	0.02463537
93	0xbbcaf41e	-0.006193652
94	0x3cd54718	0.026034877
95	0xbb3fded8	-0.0029277112
96	0x3bde4587	0.0067831906
97	0x3d2716ef	0.040793356
98	0x3d1b2f7a	0.037887074
99	0xbbdcb2a5	-0.0067351633
100	0x3cf1f5e7	0.0295362
101	0xbbc2269b	-0.0059250123
102	0x3c1638d9	0.009168827
103	0x3ace881d	0.0015757118
104	0xbd00cd1e	-0.031445615
105	0x3ce9d24b	0.028542658
106	0xbd0f1223	-0.034929406
107	0xbd34ab1f	-0.044108506
108	0x3c8a0af8	0.016850933
109	0x3d587430	0.05284518
110	0x3b69f273	0.003569749
111	0xbbb5497b	-0.005532441
112	0x3b96c17a	0.004600701
113	0x3c6710fc	0.0141031705
114	0x3d2478a6	0.04015412
115	0x3c7a4763	0.015275809
116	0x3a86f620	0.001029674
117	0x3d46873a	0.048468806
118	0xbc1ccae8	-0.009569861
119	0x3c3d1a4c	0.011541914
120	0xbc79580b	-0.015218745
121	0xbcf6abe6	-0.030111264
122	0xbc818f6d	-0.015815461
123	0x3d522c18	0.051311582
124	0xbb96fbd5	-0.0046076574
125	0x3d214f6b	0.03938238
126	0xbd0a04f6	-0.033696137
127	0x3d0ccc9d	0.034374822
128	0x3ce3d70a	0.0278125
129	0x3cb96588	0.022631422
130	0x3d39dcb2	0.045376487
131	0xbce7a010	-0.028274566
132	0xbcadb4fe	-0.021204468
133	0x3d3ebf2e	0.046569042
134	0xbce51ca4	-0.027967758
135	0x3c68d121	0.0142100165
136	0xbc4e5448	-0.012593336
137	0xbcce03af	-0.02514824
138	0x3c35d982	0.011099221
139	0x3d35ad03	0.04435445
140	0x3d27c98e	0.040963702
141	0x3a942484	0.0011302386
142	0xbbfd31f9	-0.0077269045
143	0x3bcd6399	0.0062679765
144	0x3c85a472	0.016313765
145	0xbc0c5960	-0.008566231
146	0xbd024b5e	-0.031810157
147	0x3a19b3a0	0.0005863253
148	0xbc83c80e	-0.016086604
149	0xbcffd078	-0.031227335
150	0x3d17dfba	0.037078597
151	0x3d3322f3	0.043734502
152	0x3b165e1a	0.0022944272
153	0xbc48043e	-0.012208043
154	0xbad2422c	-0.0016041449
155	0xbc84557e	-0.016154047
156	0xbc6d949a	-0.014500761
157	0xbd30af7f	-0.043136116
158	0xbbf04abe	-0.0073331287
159	0xbcead85e	-0.028667625
160	0xbc7bc599	-0.015366935
161	0xbd1b14f3	-0.037861776
162	0xbd4b1c90	-0.049587786
163	0x3cb91739	0.022594081
164	0x3d254f95	0.0403591
165	0xbca13b19	-0.0196815
166	0xbd32eeac	-0.043684646
167	0x3cac53b9	0.021036016
168	0xbbeb7f1d	-0.007186784
169	0xbd2493a2	-0.040179856
170	0x3cd18f6e	0.025581088
171	0x3cf8e228	0.030381277
172	0xbd12f9dc	-0.035882816
173	0xbd3ef4b3	-0.046620082
174	0xbbd4ee38	-0.0064981245
175	0x3aaa0fe3	0.0012974705
176	0xbc1e6eb3	-0.009669947
177	0xbcadba1e	-0.021206912
178	0xbce4ad2a	-0.027914602
179	0xbbff7089	-0.0077953977
180	0x3c02907f	0.007969021
181	0x3cff7c81	0.031187298
182	0xbd1b36fb	-0.03789423
183	0x3b564ab1	0.0032698328
184	0xbd012fb9	-0.031539652
185	0x3d09dfd1	0.033660714
186	0x3ce7e19c	0.028305821
187	0xbb0e48de	-0.0021710913
188	0xbc1169ea	-0.00887535
189	0xbc36d9a9	-0.011160293
190	0xbc2104fa	-0.009827847
191	0xbd3765e7	-0.044774916
192	0x3d0455bd	0.03230833
193	0x3d2d5c63	0.042324435
194	0xbca5878c	-0.020206235
195	0xbcb58429	-0.022157745
196	0xbca150eb	-0.019691905
197	0xbcfe5233	-0.031045055
198	0xbbee73d4	-0.0072769914
199	0xbcdb74c7	-0.026789082
200	0xbcc41bea	-0.023939092
201	0x3d10d9d3	0.035363983
202	0x3a76e6ce	0.0009418548
203	0xbce8e639	-0.028430091
204	0xb9be9363	-0.00036349436
205	0x3cf26183	0.029587513
206	0x3c8468ee	0.016163316
207	0xbba7454a	-0.0051046954
208	0xbc1562d7	-0.009117804
209	0xbcf64155	-0.03006045
210	0xbd523c7a	-0.051327206
211	0xbd447152	-0.047959633
212	0xbd2125b3	-0.039342593
213	0x3c7c2ad8	0.015391074
214	0x3c99332b	0.018701157
215	0xbd0fc7f5	-0.035102803
216	0xbc809032	-0.015693758
217	0x3c08ae01	0.008342267
218	0xbc15f843	-0.0091534285
219	0xbccc39a2	-0.024929825
220	0x3d211ce5	0.039334197
221	0xb97e97bc	-0.00024279853
222	0x3ac33629	0.001489346
223	0x3c89983e	0.016796228
224	0xbca89a44	-0.020581372
225	0xbbbddf6d	-0.0057944567
226	0xbd4720b9	-0.04861519
227	0xbc4ef84d	-0.012632442
228	0xbb4fc88e	-0.0031705233
229	0xbd6af9ef	-0.05736726
230	0xbd06afe5	-0.03288259
231	0xbbe138c8	-0.006873224
232	0xbc746204	-0.014915947
233	0x3c4fd044	0.012683932
234	0x3cf782f6	0.030213814
235	0xbb432484	-0.0029776404
236	0x3cde54b8	0.027140006
237	0x3d14cf99	0.036330793
238	0x3d1943bf	0.037418123
239	0x3c2ed16e	0.010670049
240	0x3d0f624d	0.035005856
241	0xbd0dc332	-0.03460998
242	0x3d390851	0.045173947
243	0xbba7de43	-0.005122931
244	0x3c3ea114	0.011635084
245	0xbc247835	-0.010038425
246	0x3c1e3338	0.009655766
247	0x3d26ede1	0.040754203
248	0x3cef1d63	0.029188817
249	0xbca0fa83	-0.019650703
250	0xbc8765a4	-0.016527958
251	0xbd4d95e8	-0.05019179
252	0x3d0858af	0.0332877
253	0x3bece115	0.0072289803
254	0x3b925d4d	0.0044666887
255	0x3d2cf179	0.042222474

block_5.1.weight f4 [8]
0	0x3f773982	0.96572125
1	0x3f80f10d	1.0073563
2	0x3f78360f	0.96957487
3	0x3f7c517a	0.98561823
4	0x3f7b40c0	0.98145676
5	0x3f7b10d7	0.9807257
6	0x3f7a76bf	0.9783744
7	0x3f80b85d	1.0056263

block_5.1.bias f4 [8]
0	0xbc92528e	-0.01786163
1	0x3cc10334	0.023561098
2	0xbcd71222	-0.026253764
3	0xbc8f191a	-0.017468024
4	0xbc4a6146	-0.012352293
5	0xbcee1d28	-0.029066637
6	0xbd026584	-0.031835094
7	0x3c7c53cf	0.015400841

block_5.1.running_mean f4 [8]
0	0xbb815c4a	-0.0039477693
1	0xbd162b99	-0.03666267
2	0xbc4d237e	-0.012520669
3	0xbb000de9	-0.001953954
4	0xbce47300	-0.027886868
5	0xbcc79b90	-0.02436617
6	0xbb6ca32b	-0.0036107998
7	0xbc89818b	-0.016785404

block_5.1.running_var f4 [8]
0	0x3ff167d2	1.8859808
1	0x406c65c9	3.6937125
2	0x3fabbc39	1.3416816
3	0x3fbd79f6	1.4802845
4	0x400075d0	2.0071907
5	0x3fdff8d4	1.7497811
6	0x400ca4f3	2.1975677
7	0x3fc784f6	1.5587451
